models/pytorch_lstm_model.pth (torch, 666550 bytes, 6 tensors)

lstm.weight_ih_l0 f4 [256, 581]
000000 62 a4 49 bc e6 d9 25 be 51 80 e1 3c 04 38 84 bc
       -0.012307258 -0.16196403 0.027527006 -0.016139992
000010 8f 84 9f bc 75 48 bc bd 21 d8 5f 3c a9 78 aa 3c
       -0.019472389 -0.091935076 0.013662369 0.020809488
000020 25 3d 21 bb e5 41 91 bd 99 71 51 bd 3d 77 53 3d
       -0.0024603095 -0.070926465 -0.051133726 0.051627386
000030 4b 58 cc bc 87 d2 d6 bb e9 cf e0 3d 69 6d 07 3d
       -0.024944445 -0.0065558585 0.10977156 0.033063326
000040 24 1e c4 bd 6e b5 95 bd 26 d4 24 3d 54 2b 60 bd
       -0.09576061 -0.073099956 0.040241383 -0.05472882
000050 5e f7 90 3d c4 bb f3 3d 50 55 37 bc 02 57 7a bd
       0.070784315 0.11901048 -0.011189774 -0.061118133
000060 15 81 62 bd ab 1d 04 be 8d d9 57 bd 33 ca cc bd
       -0.055298883 -0.12901942 -0.052697707 -0.09999504
000070 0d f3 2c bd 44 bd c8 bd c7 b7 0c bd b2 ae c2 3d
       -0.04222398 -0.098017246 -0.03435495 0.09505977
000080 a7 1d 88 3d 92 ce d1 bd ad 1f 83 3c 39 0b e0 3d
       0.06646281 -0.10244478 0.016006315 0.109396406
000090 ec 76 68 3d a0 2d f3 bd 90 22 40 bc c0 4e 8f bc
       0.056754038 -0.11873937 -0.01172699 -0.017493606
0000a0 cb 94 9e bc 27 90 33 bd ac aa c2 3d 34 cb f6 3d
       -0.01935806 -0.043838646 0.09505209 0.12050477
0000b0 38 97 ad bd e5 68 86 39 54 58 90 bd e4 f1 a6 bd
       -0.08476108 0.00025636624 -0.07048097 -0.08151606
0000c0 a8 9e f2 3d 6b 86 1c 3e 28 38 78 bd 4c 56 c8 3d
       0.118466675 0.15285651 -0.06060043 0.09782085
0000d0 f5 7a 54 3d 00 50 60 3d f6 75 e3 bd 74 8e 87 3c
       0.051875073 0.054763794 -0.11106484 0.01654742
0000e0 30 b4 ae 3d 20 70 f5 3b 3e bd 77 3d ff 13 63 3d
       0.08530462 0.007490173 0.06048321 0.05543899
0000f0 e2 d2 69 3d b3 5f 39 3d c7 df 03 3c b2 25 bb 3d
       0.05708588 0.04525728 0.008048958 0.09138049
000100 e3 42 bd bd b0 89 44 bc 0a 11 d1 3d 5d e5 d0 3d
       -0.09241273 -0.011995718 0.10208328 0.101999976
000110 d4 ea d2 3d 36 30 66 3a 34 f5 1b 3d 73 e0 88 bc
       0.10298696 0.00087809877 0.03807564 -0.016708588
000120 14 19 c0 bd f0 01 6b bc b0 33 ec bc 6f 3a 8c bc
       -0.09379783 -0.014343724 -0.02883324 -0.017117707
000130 08 75 f9 3c 74 00 b5 bd 12 08 86 3c ac 76 fd 3d
       0.030451313 -0.08837977 0.01636127 0.123761505
000140 66 00 a7 3d 29 49 d7 3d f2 d1 99 3d c3 92 f9 3d
       0.08154373 0.10512001 0.07510747 0.12186196
000150 f0 1c b7 bc 68 d6 16 be da 00 18 bd 61 5b ae 3d
       -0.022352666 -0.14730227 -0.037110187 0.08513523
000160 22 25 d5 3d 6e 21 a0 3d 7f af 28 be df c0 25 be
       0.10407473 0.07818876 -0.16473196 -0.16186856
000170 93 78 ea 3d 82 1a f1 3d 7a fe 2d b8 ce 01 06 3e
       0.11448779 0.11772634 -4.1483414e-05 0.13086626
000180 84 95 1c 3b ef 8b 62 bc a1 49 68 bd bb dc b5 3d
       0.002389283 -0.013827308 -0.056710843 0.088799916
000190 f7 0b 1d 3e 3e c8 b1 3d 3c 33 70 bd 30 f3 7f bd
       0.15336595 0.08680771 -0.05864261 -0.06248778
0001a0 90 c4 17 3c c4 97 d0 bc 90 b9 39 3c 0c eb 34 3d
       0.009263173 -0.025462992 0.011335745 0.04416947
0001b0 10 87 28 be 47 7a 68 bd 2d 49 79 bd 4e 96 53 bc
       -0.16457772 -0.056757238 -0.0608608 -0.012914253
0001c0 a6 cb 92 bc 35 34 b6 bd 72 87 7e 3d 30 da 6b bc
       -0.017919373 -0.088966765 0.06214089 -0.014395282
0001d0 58 3d fc bc 28 e6 b8 bc 93 e2 e4 bc 0c e7 35 bd
       -0.03079097 -0.022570685 -0.02794007 -0.044409797
0001e0 02 21 50 bd 3c 1e 22 bd 1b 4a 97 3d 98 7d bd bd
       -0.05081273 -0.039579615 0.07387181 -0.09252471
0001f0 55 c9 bb 3d 84 c1 6c 3d 0f b0 e6 bc cd a8 55 3c
       0.091692604 0.05780174 -0.028160123 0.0130407335
000200 4d b1 8e 3d 38 c6 b3 bc 00 47 33 3b 84 5a a3 bd
       0.06967411 -0.021945104 0.0027355552 -0.07976249
000210 69 cd 11 3e c6 f8 b2 3d bc 7f ea 3d 96 3b 03 bd
       0.14238514 0.08738856 0.11450145 -0.032039247
000220 e0 27 4d bd ad fb 11 3d 0b 2a 2b 3d ae fa d5 3d
       -0.050086856 0.035640407 0.041788142 0.10448204
000230 87 62 0d 3c 10 a8 7b bd 44 d1 32 3d e6 bb 05 bc
       0.008629448 -0.061439574 0.043656603 -0.008162474
000240 82 01 e8 bd 29 e1 f0 3d 75 a4 86 3d 98 e2 c9 3d
       -0.113284126 0.11761696 0.065743364 0.098576725
000250 ce a2 81 bd 91 29 c0 bd bb d8 a8 3d 51 95 44 3e
       -0.06329881 -0.09382928 0.08244463 0.19197585
000260 0e e0 b0 bd 0e a5 59 bd aa 2b a2 3d f9 26 ed bd
       -0.08636485 -0.053135924 0.079184845 -0.11579699
000270 12 47 b2 3d 1d 1d 9a bd 23 5c f4 bd 37 47 08 3e
       0.08704962 -0.07525084 -0.11931636 0.13308416
000280 68 ce 28 bc 0a 72 1a bd 6c b3 95 bd d4 33 a4 bd
       -0.010303117 -0.037706412 -0.07309613 -0.08017698
000290 18 f0 e6 3c 50 9b a4 bd 8d c9 c8 bc d4 49 ec 3d
       0.028190657 -0.08037436 -0.02451017 0.11537519
0002a0 fb fc f9 3d 63 7d 00 3e b0 37 72 bd b0 c5 47 3d
       0.12206455 0.12547831 -0.05913514 0.048772514
0002b0 7e 3b 36 bd cf 67 21 3d 4a c3 9b 3d 02 6d c4 bd
       -0.04449033 0.03940564 0.07605608 -0.09591104
0002c0 b0 85 c5 bd 6b af c6 3d c0 1c 60 3b 12 79 a8 bd
       -0.096446395 0.09701427 0.0034196824 -0.08226217
0002d0 e9 68 c2 3b a0 d7 a2 bd 18 a4 d5 3c 98 7d a5 bc
       0.0059329164 -0.079512835 0.026079223 -0.02020149
0002e0 fc 41 74 3d 36 ae c3 bd bd 3e ae 3c 6c d1 df bd
       0.05963324 -0.095547125 0.02127015 -0.10928616
0002f0 10 03 fa 3d 39 96 9c 3d bb fa a9 3d 9e 55 85 3d
       0.122076154 0.0764584 0.08299776 0.06510471
000300 c6 1e c1 bd 49 80 d8 3d 70 19 1b bd a1 d9 22 be
       -0.09429698 0.105713435 -0.037866056 -0.15903331
000310 e0 83 9a bd 5c 1b 27 bd aa fb d4 3d 4d aa 01 3e
       -0.075446844 -0.040797576 0.103995636 0.12662621
000320 0b 9d 7f 3d 90 1a 80 bd 78 de 3b bd 90 3f ff bd
       0.062405627 -0.062550664 -0.04586646 -0.124632955
000330 40 64 a6 bc f4 25 6f 3d 57 4a 73 3d d3 56 d8 bb
       -0.020311475 0.058385804 0.059397068 -0.006602147
000340 f4 68 d3 3d 70 c8 10 bd 00 e9 a1 3d ae 82 1b 3e
       0.103227526 -0.035347402 0.07905769 0.15186569
000350 24 29 1a 3d 0c 46 25 3c 41 5e e0 3d 00 82 04 ba
       0.03763689 0.010087501 0.109554775 -0.0005054772
000360 2a 69 cc bd 27 b8 8c bd df 7a 25 3e fd 22 73 3d
       -0.09980996 -0.06871062 0.16160153 0.05935954
000370 4e 8a 10 bd f9 6f e8 bd 96 4d 88 3d b0 d4 cf 3c
       -0.035288148 -0.11349482 0.06655423 0.025369972
000380 c8 46 2c bd 50 ff 10 bd 70 99 96 bd 16 b1 1a 3d
       -0.04205969 -0.035399735 -0.07353485 0.03776654
000390 f8 21 75 bd e8 bd 97 bc 93 0a f4 3d 9b 79 c8 bd
       -0.05984685 -0.018523172 0.11916079 -0.097888194
0003a0 c1 0f 72 3d ec 56 4f 3d a8 9b 14 bd d0 99 ac bd
       0.059097055 0.050620005 -0.036281258 -0.08427775
0003b0 94 0a cc 3d f6 dd ad 3d fb 17 82 3d ad d9 08 bd
       0.09962955 0.08489601 0.0635223 -0.033410717
0003c0 d0 57 6d 3c 70 c6 cf 39 b4 3a 2a bd 20 c6 02 bd
       0.014486268 0.00039629964 -0.04155989 -0.031927228
0003d0 16 c1 12 bd c6 cd d3 3d cf 2c a5 bd ac 17 61 3d
       -0.035828672 0.103419825 -0.08065187 0.054954216
0003e0 12 d9 71 bd 2a e2 21 bd 14 bf e7 3d 21 e6 bf bc
       -0.059044905 -0.039522327 0.11315742 -0.023425164
0003f0 0e 09 24 bd 64 5a 9b bd 74 ca cf 3c a5 e0 11 bd
       -0.040047698 -0.075856 0.025365092 -0.03561463

lstm.weight_hh_l0 f4 [256, 64]
000000 ae 89 e3 bd 60 f9 32 bd 10 fd a5 bc 2a 6d e6 3d
       -0.11110245 -0.043694854 -0.020262271 0.1125129
000010 5e 20 87 3d bc 2b b4 3d f8 fe cc 3d 44 0c d3 bd
       0.065979704 0.08797404 0.10009569 -0.10305074
000020 a4 5e 4d bd 64 ef 78 bd 98 31 32 3d 86 09 82 3d
       -0.050139084 -0.060775176 0.043504328 0.06349473
000030 48 15 fa 3c 60 31 ab 3c 84 c2 23 bd 20 f6 8a 3b
       0.030527726 0.020897567 -0.039980426 0.004240766
000040 50 d0 a3 3d 40 b9 b3 bb f4 7e 4c 3d 78 09 42 bd
       0.07998717 -0.00548473 0.04992576 -0.04737231
000050 70 fa 62 3c 44 e9 a0 bd d2 94 ca 3d e0 82 a2 3b
       0.013853654 -0.07856992 0.098916665 0.004959449
000060 f4 2f d0 bd 00 8e c7 b9 2c d1 43 bd c4 40 1c bd
       -0.10165396 -0.00038062036 -0.047806904 -0.038147703
000070 a0 99 99 3b 3a 23 91 3d b0 2e b0 3d 16 65 da 3d
       0.004687503 0.07086797 0.08602655 0.10663812
000080 60 a5 18 bd d6 14 94 3d 6a fb d5 bd 08 08 2a 3d
       -0.03726709 0.07230537 -0.10448344 0.041511565
000090 ac e6 ef 3d 10 b5 7f bc 98 a3 88 3c e2 21 aa bd
       0.11713919 -0.0156071335 0.01667957 -0.08307244
0000a0 b0 c2 b0 3c a4 28 9f bd bc 31 f1 3d 1c 25 21 3d
       0.02157721 -0.077714235 0.11777064 0.03934203
0000b0 00 76 d4 bd 80 5e 65 3d e0 5f bb 3c 00 1a c1 bd
       -0.10374069 0.055998325 0.022872865 -0.09428787
0000c0 20 9c 6e bd fa bb e3 3d 4a 72 f1 3d b0 2b ad bc
       -0.05825436 0.11119838 0.11789377 -0.021138996
0000d0 80 d9 b7 bb 64 eb 43 3d 80 81 fb 3a 94 f0 87 bd
       -0.005610645 0.047831908 0.0019188374 -0.066376835
0000e0 38 ad b1 3c e4 14 52 bd c6 2b c1 bd 54 75 48 3d
       0.021689042 -0.051289454 -0.09432177 0.048940018
0000f0 f0 0e 7f bd 46 3b f1 3d 8e e4 d6 bd 58 01 a4 3c
       -0.062270105 0.11778884 -0.10492812 0.020020172
000100 42 70 fc bd 7a 13 98 bd f0 e0 d2 3d 06 21 e5 bd
       -0.12326099 -0.0742559 0.1029681 -0.11187939
000110 de 9c cb 3d 98 e6 b6 3c 00 d8 92 38 9c 33 9d 3d
       0.099420294 0.022326753 7.002056e-05 0.07675859
000120 98 4d 7b bd 38 fa f3 bc 10 73 f2 3d 80 20 11 3c
       -0.061353296 -0.0297824 0.11838353 0.008857846
000130 48 da 8b 3c fc 30 2f 3d 1e 35 99 3d a0 1d f2 bc
       0.017071858 0.042771325 0.074808344 -0.029555142
000140 80 59 47 bd b8 e1 d8 3d cc a9 ef bd c0 7d 54 3b
       -0.04866934 0.105899274 -0.11702308 0.0032423586
000150 74 0a e7 bd c0 5e 21 3c e6 e2 a5 3d c2 79 cb bd
       -0.11281291 0.00984925 0.08099918 -0.09935333
000160 f0 96 cb 3c a6 4b c6 bd 60 67 be 3d e6 45 c2 3d
       0.024852246 -0.096823975 0.09297061 0.09485988
000170 78 f4 34 3d 48 5b 5b bd a0 c1 f3 3d 68 44 12 3d
       0.044178456 -0.05355385 0.119021654 0.03570977
000180 94 08 f5 3d 70 dd 98 3c ce 15 b9 bd d6 f0 9f 3d
       0.11964527 0.018660277 -0.09037362 0.07809608
000190 58 73 e3 3c 82 31 a7 bd d0 0f 5a bc 60 df 49 3c
       0.027764961 -0.0816374 -0.013309434 0.012321323
0001a0 ca 48 de bd fa 26 d7 3d d0 fb 2b 3c 4e 35 a1 3d
       -0.10853727 0.10505481 0.0104970485 0.07871495
0001b0 4c f2 65 3d a6 50 b3 bd f0 6c 38 3c d4 31 7d 3d
       0.056139275 -0.08755617 0.0112564415 0.061815098
0001c0 44 1e ad 3d e4 40 aa 3d 3e cf fd bd ae 47 ee 3d
       0.08453038 0.08313158 -0.12393044 0.116347656
0001d0 d0 7a 23 3c 00 de 06 3d 26 da a4 3d 10 51 0a bd
       0.009978011 0.03292656 0.08049421 -0.033768713
0001e0 00 f5 b0 bd 00 14 2e 3a 60 75 ee bc 9e 4a c0 3d
       -0.0864048 0.00066405535 -0.029108703 0.09389232
0001f0 a0 87 b6 3b 0c eb fd bd 4c 23 c4 3d ec 21 df bd
       0.005570367 -0.12398347 0.09577045 -0.10895142
000200 e4 12 b4 bd 30 0f 12 3c d0 ae 15 3d 74 35 31 bd
       -0.087926656 0.008914754 0.036543667 -0.043263867
000210 ea c9 d3 bd 2c 60 2e 3d 56 3d 86 3d fc 61 64 3d
       -0.103412464 0.042572185 0.06554668 0.055757508
000220 00 ee d1 bb e8 66 d9 3d fc 9d f7 bd 34 fc 6b 3d
       -0.0064065456 0.10615331 -0.1209068 0.057613567
000230 94 9b 3f bd b8 0e 86 bc da fd e2 3d 8c 2e 3a 3d
       -0.04677923 -0.01636444 0.110835746 0.045454547
000240 00 e4 25 bc 16 47 f0 3d 28 00 ad bd 70 c6 58 bc
       -0.01012516 0.117323086 -0.084472954 -0.013230905
000250 24 dd cb 3d 68 d2 69 3d a6 96 e9 bd 74 bd 92 bd
       0.099542886 0.057085425 -0.11405687 -0.071650416
000260 84 ac 85 bd bc d6 90 3d d8 d8 03 3d 08 04 5d bd
       -0.06527045 0.07072207 0.03218922 -0.053958923
000270 86 cc ac bd 64 8c ed 3d 22 54 83 3d 5c b2 7b 3d
       -0.08437447 0.11599043 0.064125314 0.061449394
000280 c2 88 eb bd cc b8 a3 3d 30 f0 d0 3d d4 32 e3 bd
       -0.11500694 0.079942316 0.10202062 -0.11093679
000290 c0 26 41 3d 18 9d d3 3c b4 5e 17 3d bc 51 25 bd
       0.047156096 0.025831744 0.03695555 -0.04036115
0002a0 80 cc c4 bc 4a 1f c1 3d 94 e4 17 3d 44 0b 67 3d
       -0.024023294 0.09429796 0.037083223 0.056407228
0002b0 b0 0d 65 3d 92 37 a2 bd ca 21 f7 3d dc 4d 66 3d
       0.055921257 -0.079207554 0.120669916 0.056226596
0002c0 3e e5 a3 bd 7a 1d 8e bd 32 2b 85 3d 68 e2 7b 3d
       -0.08002709 -0.06939216 0.065023795 0.061495215
0002d0 28 25 21 bd 74 4d b7 bd 80 a7 5e 3b 78 e5 e0 3c
       -0.039342076 -0.0895032 0.003397435 0.02745317
0002e0 f0 8c fe 3d c4 1d bd 3d f6 49 d6 bd ec 33 b6 3d
       0.124292254 0.09234193 -0.10463326 0.08896622
0002f0 d8 18 75 bd a4 9f a2 3d c4 df 9f bd 84 95 c6 bd
       -0.059838146 0.07940605 -0.07806352 -0.096964866
000300 24 78 34 3d e4 cb 0d 3d f2 31 c5 3d 98 da a0 bd
       0.044059888 0.034618273 0.09628667 -0.078541934
000310 18 45 b4 3c 70 14 37 3d 04 2c 51 bd 30 a0 9c bc
       0.022005603 0.044697225 -0.051067367 -0.019119352
000320 44 08 05 bd 28 c9 f4 bd 7e 9f e8 bd f4 78 de bd
       -0.032478586 -0.1195243 -0.11358546 -0.10862914
000330 b8 e8 5d 3d 60 23 a9 3c 74 ac 09 3d f0 49 1f bd
       0.054177016 0.02064675 0.03361173 -0.03888887
000340 a8 a2 fd bc 2e 55 be 3d 2a 1e f4 3d 86 57 df bd
       -0.03096135 0.092935905 0.11919816 -0.10905366
000350 1c 95 2a 3d 5e b9 a8 3d e8 c9 b3 3d b4 5e 3b bd
       0.041646108 0.08238481 0.08778745 -0.045744613
000360 72 41 ba bd d0 36 1d 3c 00 57 27 ba 74 e7 5c bd
       -0.09094514 0.009595588 -0.00063835084 -0.05393167
000370 1c 2f 56 3d b0 90 d0 3c 00 5e c6 3b 4c e1 ef 3d
       0.05229102 0.025459617 0.006053686 0.11712894
000380 44 20 69 3d 44 f9 09 3d 60 f3 fd 3b 40 11 fa bb
       0.056915537 0.033684984 0.00774996 -0.007631451
000390 c0 7e 88 bd 58 e6 0d bd 40 43 64 3b da 0e 8c bd
       -0.06664801 -0.0346435 0.0034830123 -0.0683877
0003a0 32 ee eb bd 5a 9e b2 bd 30 bb 95 3d 74 56 d1 3d
       -0.115200415 -0.087216094 0.07311094 0.10221568
0003b0 c0 c6 15 bc 96 7b f1 bd 2e d5 ce bd c8 84 fe bc
       -0.009141624 -0.1179115 -0.100992545 -0.031069174
0003c0 bc fb cb bd 52 51 98 3d 78 af 81 3d 88 43 e9 3d
       -0.09960124 0.074373856 0.06332296 0.11389834
0003d0 6e f6 a8 3d 6a 1b f0 bd e8 6c ca 3c 16 d7 c8 bd
       0.08250128 -0.11723979 0.024710134 -0.098066494
0003e0 68 f9 11 bd 4c 87 e1 3d 20 1d 3d 3c 40 38 53 bc
       -0.035638243 0.11012134 0.0115425885 -0.012891829
0003f0 98 61 85 3d 60 c1 4a 3d 0e 1e e3 3d b8 94 85 3c
       0.06512755 0.049500823 0.11089717 0.016306266

lstm.bias_ih_l0 f4 [256]
000000 c5 82 67 bc 4d 78 11 be cc 44 77 bc 47 f7 2f 3e
       -0.014130299 -0.14206047 -0.015092086 0.17184173
000010 4a 76 4a bd f4 62 8c bd 83 5c ab 3d 58 c2 15 bd
       -0.049429215 -0.06854811 0.083672546 -0.036562294
000020 f9 29 14 bd eb be 15 3e fd ec 55 bc 8a f0 91 bd
       -0.03617284 0.1462361 -0.013056991 -0.07125957
000030 f3 30 f3 3d e4 bd f6 3c 09 73 81 3e 0c 09 9c bd
       0.11874571 0.030119844 0.25283077 -0.07618913
000040 dc 84 5e bd af 64 39 3d 74 db eb 3d 90 c0 e4 3d
       -0.054325923 0.045262035 0.11516467 0.11169541
000050 62 d8 ff bd 60 c8 67 3d 80 e4 2d bc e1 5c d9 3d
       -0.124924436 0.056587577 -0.010613561 0.10613418
000060 80 e7 e0 3c 8a 58 af bd c0 7f ef 3b 40 6d 2a 3d
       0.027454138 -0.08561809 0.00730893 0.041608095
000070 52 4f 19 3d 88 7c 23 be a0 97 7e 3d 44 43 d4 3c
       0.03742916 -0.15965474 0.06215632 0.025910981
000080 80 be 67 bb ee 3e 9d 3d 16 ec dd 3c 5c 95 43 bd
       -0.003536135 0.076780185 0.027090114 -0.047749862
000090 df a4 31 3d 9b da a7 bd 30 72 5f bd bd 85 1b bd
       0.043370124 -0.081959926 -0.054552257 -0.03796934
0000a0 96 f4 c8 bc 75 df 0b be a0 2c a4 bb e1 39 32 3d
       -0.02453069 -0.13659461 -0.0050102025 0.04351223
0000b0 8f 77 2a 3d 69 68 4d 3d 88 a4 3f bd b2 26 a4 3d
       0.041617926 0.0501484 -0.04678777 0.08015193
0000c0 1c f0 74 3d 18 e3 48 3d 94 62 a5 3d 48 5e 59 bd
       0.0597993 0.0490447 0.08075443 -0.05306843
0000d0 f9 34 ee bd 14 ae f8 bd 15 4e b4 bc e8 8b b3 3c
       -0.116311975 -0.12142578 -0.022009889 0.021917298
0000e0 34 20 ac 3d 89 eb 79 3d f2 9c 2e 3d 95 2d 24 bd
       0.0840458 0.06101564 0.042630143 -0.040082533
0000f0 6e d8 f3 3d dd 37 8b 3c 2a 87 a2 bd a0 cc fc 3d
       0.11906515 0.016994411 -0.07935937 0.123437166
000100 8a 53 82 bd ec 5a 9f 3d 48 a8 59 3d 5e 8d b3 3d
       -0.0636359 0.07781014 0.053139 0.08767198
000110 74 64 45 3d c8 bf c0 3d b4 2c 1c bd 54 f0 86 bd
       0.048191503 0.09411579 -0.03812857 -0.06588808
000120 6c cd 6c 3d 58 38 e9 bc 3c a4 1f bd e0 52 d3 3c
       0.057813093 -0.02846925 -0.038974985 0.025796354
000130 02 e9 e0 bd 30 15 03 3d 00 29 3d 3b a0 10 8f bd
       -0.10981943 0.032002628 0.002886355 -0.06985593
000140 4e e8 97 3d 80 dc b0 ba 6e 06 e7 3d 98 41 d8 bc
       0.074173555 -0.0013493448 0.11280523 -0.026398465
000150 b2 ed bd bd 7e 86 a3 3d 7a cf ef 3d d0 ee d1 3d
       -0.092738524 0.07984637 0.11709495 0.10250628
000160 e8 ed 53 3d e0 75 83 bc 38 9d a9 3c e2 27 f1 3d
       0.051740557 -0.016047418 0.02070485 0.11775185
000170 14 6c 15 bd 80 ef 43 3c 16 c3 e1 bd ce bc 8b 3d
       -0.036480024 0.011958957 -0.11023538 0.06823121
000180 98 8c fc bc f0 45 f0 bc 50 9d 1d bc f4 1c e0 3d
       -0.03082876 -0.029330224 -0.009620026 0.10943022
000190 20 72 e9 3c 4a a2 a1 bd 90 19 f6 bc 04 e1 87 3d
       0.028496802 -0.07892282 -0.030041486 0.06634715
0001a0 c6 c5 e6 3d 3a 8a cb bd 98 f4 33 3d 76 ea b1 bd
       0.11268191 -0.09938474 0.043934435 -0.08687298
0001b0 68 62 14 3d 70 83 5c 3c 52 29 93 3d f0 73 a2 3d
       0.03622666 0.0134590715 0.071856156 0.079322696
0001c0 1e b8 f9 bd 8c cc 51 bd 40 39 91 bd d4 8d 4a 3d
       -0.12193321 -0.05122046 -0.07090998 0.049451664
0001d0 18 cb fb bc 00 08 11 39 40 bb 23 3b 5c 01 7d 3d
       -0.030736491 0.00013831258 0.0024983436 0.061768875
0001e0 58 ab 97 3d 80 02 1f bc ac 00 a0 bd 6e 98 d9 3d
       0.07405728 -0.009705186 -0.07812628 0.10624777
0001f0 f2 d1 a6 bd 78 e6 e1 bd f4 ed 51 3d f6 b3 ec bd
       -0.08145513 -0.110302866 0.05125232 -0.11557762
000200 66 72 ae 3d 47 d1 8d 3d ed 03 a8 bc b8 93 b2 bc
       0.085179135 0.06924682 -0.020509684 -0.021798953
000210 6a f5 90 bc ec c8 7f bd 32 02 ac bd 3c 31 8a 3d
       -0.017695148 -0.062447473 -0.08398856 0.06747672
000220 dd b4 00 3e 45 c2 ff 3d 4b 67 19 3e b6 61 9c bd
       0.12568994 0.12488226 0.1498081 -0.076358244
000230 db ec e7 3d 2a eb db 3d de 5c 36 3d 9a 73 ac 3d
       0.113244735 0.10738213 0.04452216 0.08420487
000240 42 5c 86 bd 65 e8 9a 3d 7a 27 b5 3d 25 e2 e8 bd
       -0.065605655 0.07563857 0.0884542 -0.11371259
000250 40 a0 4a bb c0 48 82 bc 36 e7 af bd 24 6c 3e 3d
       -0.003091827 -0.01590383 -0.08589022 0.04648985
000260 e9 01 5f 3e 41 d9 ad 3d 1f 41 ee 3c 08 4d 9d 3d
       0.21778072 0.084887035 0.029083787 0.07680708
000270 a2 ea 2c bc 18 3b ee bc 2c 77 19 3d cc f0 12 bd
       -0.010553988 -0.029080912 0.037467167 -0.035874173
000280 de c5 83 3d c2 80 b0 3d cf 14 ea bc ff 3a 01 3e
       0.064342245 0.086183086 -0.028574375 0.12620161
000290 63 85 90 3d f8 da 9d 3d 6c 92 d4 bd d6 66 6f bd
       0.070566915 0.077077806 -0.1037949 -0.05844768
0002a0 ec 7c 69 3c 25 ac e6 3d de 1b 87 3d 90 8e 72 3d
       0.014250975 0.11263303 0.06597112 0.05921799
0002b0 f1 8f a9 3d ec 47 b1 bd db 56 83 3d 66 43 82 bd
       0.08279408 -0.08656296 0.06413051 -0.063605115
0002c0 72 bc b9 bd 0c 22 45 bd 60 02 6a bd 90 ba f6 bd
       -0.09069146 -0.048128173 -0.05713117 -0.12047303
0002d0 58 de 91 3c 2c 6b 29 3d 6c 8f 1e 3d a2 0c fb bd
       0.017806217 0.041361973 0.038710997 -0.12258269
0002e0 30 15 d3 3c 26 e8 10 3e 45 de 7c 3d b4 85 4a bd
       0.025766939 0.14151058 0.06173541 -0.049443915
0002f0 62 fc db 3d b0 79 c3 3d 7c 26 21 3d 9a 63 c9 3d
       0.107414976 0.095446944 0.039343342 0.098334506
000300 16 a1 df bd 40 53 ce 3c 8e 1e 97 3d b0 a9 d2 3c
       -0.109193966 0.025186181 0.07378875 0.025715679
000310 24 95 3f 3e 24 c8 9b bd b6 08 86 3d 20 95 d3 bd
       0.18709236 -0.07606533 0.0654463 -0.10331178
000320 af fa 3b 3d c9 67 2e bd 39 42 c4 3d 48 f9 12 3e
       0.045893367 -0.042579446 0.095829435 0.14352906
000330 b0 34 47 bd e8 77 87 3c 90 0e 49 bc c5 ab 43 be
       -0.04863423 0.016536668 -0.012271538 -0.19108494
000340 2c 8f b1 3d ed e9 14 bd 1a a1 ff bd 27 b8 c9 3d
       0.08669886 -0.0363559 -0.124818996 0.098495774
000350 13 28 eb bc 59 f4 73 3d e8 49 91 3c 9f 32 26 3e
       -0.028705632 0.0595592 0.017735437 0.16230248
000360 4f b4 eb bc 40 ef ad bd 61 67 b4 bc 00 fd 20 ba
       -0.028772501 -0.08492899 -0.022021951 -0.00061412156
000370 48 44 db 3d ad 51 e5 3d 00 38 d5 bd 63 ba f1 bd
       0.10706383 0.11197219 -0.10411072 -0.118031286
000380 54 e1 07 3d 0c 37 a8 3d 96 57 00 bd 5a 19 c9 bd
       0.033173874 0.08213624 -0.03133353 -0.098192886
000390 d2 95 fa bd b4 f5 0c bd 18 28 14 be 6a 2f 13 3d
       -0.12235607 -0.03441401 -0.1446842 0.03593389
0003a0 39 fb a7 bc c0 e3 c3 bc c0 82 2f 3d 1e a7 64 3d
       -0.020505534 -0.02391231 0.042849302 0.055823438
0003b0 d4 ad bf bc f4 3d 0c 3b ce 79 bd 3d 66 b1 d6 3d
       -0.023398317 0.0021399232 0.09251748 0.10483055
0003c0 b8 66 be 3d fc 3d 0a 3d 97 85 c3 3d 40 8c fc 3d
       0.09296936 0.03375052 0.095469646 0.12331438
0003d0 f4 17 56 3d 48 c3 6b 3d c0 91 13 bd e8 f9 c0 3c
       0.052268937 0.05755928 -0.03602767 0.023556665
0003e0 e8 c4 90 bc aa b5 bc 3d 6b a2 99 bd 27 1d a4 3c
       -0.017672017 0.09214337 -0.07501682 0.020033432
0003f0 3d 52 97 bc 88 84 ce bc 7a e6 ea bd d1 02 6d 3d
       -0.018471831 -0.02520968 -0.11469741 0.057864014

lstm.bias_hh_l0 f4 [256]
000000 e2 af d7 3b 55 27 db bd 42 4f e0 3d 36 08 44 3e
       0.006582246 -0.10700861 0.10952617 0.19143757
000010 0a 07 db 3c 6c 33 7a 3d f8 40 01 3d 61 f5 0b be
       0.026736755 0.061084196 0.0315561 -0.13667823
000020 08 ff b6 3d 73 57 1d 3e 22 0e bb bd 59 28 ec 3c
       0.08935362 0.1536539 -0.09133555 0.028827833
000030 82 4b 0b 3e 31 0a e8 3c c0 5f 19 3e ee f5 ed 3d
       0.13603023 0.028325172 0.14977932 0.11619173
000040 22 90 98 3d e3 43 d7 bc c8 e9 4f 3d df 1c ce bd
       0.07449366 -0.026277488 0.05076006 -0.100641005
000050 a0 7f d8 3d 55 1b 9f bd 10 97 bd 3d dc 2c 18 3e
       0.105712175 -0.07768885 0.092573285 0.14860862
000060 6a 5a 87 bd 96 0c f9 bd f6 36 d8 3d 20 84 95 bb
       -0.06609042 -0.12160604 0.10557358 -0.0045628697
000070 98 4a c2 bd ed 6a 3d be b2 c3 92 bd 2e ea 99 bd
       -0.09486884 -0.1849782 -0.07166232 -0.07515369
000080 38 4b a3 3d 30 6b 82 bc a7 d4 79 3d d5 d8 f7 bd
       0.07973331 -0.015920252 0.060993817 -0.12101904
000090 b3 6c 04 3d 27 18 8e bd 28 ac 8b bd 0f 06 96 3d
       0.032330226 -0.069382004 -0.068199456 0.07325374
0000a0 f7 e6 09 bd 3b ac 2e be a2 de b8 3d f4 2f 01 bd
       -0.03366753 -0.17057888 0.09026839 -0.031539872
0000b0 2d 25 64 bd 04 de 2b bd 98 d1 bb 3c ac 5f f8 3d
       -0.055699516 -0.041959777 0.02292709 0.12127623
0000c0 ee 46 9b 3d 60 c2 83 3d 8e 8c d7 3d 60 03 cf bc
       0.07581888 0.064335585 0.105248556 -0.025270164
0000d0 0f fb 19 be 08 d3 83 bd 5a 3e f4 bc 9e 42 80 3d
       -0.15037178 -0.064367354 -0.029814888 0.06262706
0000e0 0e dd 9c bd cc 4e cd 3d c8 65 e6 bd 97 2c c3 3d
       -0.0765935 0.10024795 -0.11249882 0.09529989
0000f0 00 66 62 3a 55 32 5c bd e2 f3 a8 bd a8 05 b7 3d
       0.0008636415 -0.053758938 -0.08249642 0.08936626
000100 04 62 26 3d 3c 08 42 bd 68 f6 69 bd 50 79 88 3d
       0.04062082 -0.047371134 -0.057119757 0.066637635
000110 34 20 12 3d 72 df 91 3d 80 24 b8 ba 7c ae 62 bd
       0.035675243 0.07122697 -0.0014048964 -0.055342183
000120 78 ba 7f bd ca 23 8d bd 08 fc 55 3d 48 7e 2c bd
       -0.06243369 -0.06891592 0.05224231 -0.04211262
000130 e0 1c ef bb 54 ef 2a 3d 0a 6a c2 3d d0 fb 32 3d
       -0.0072971433 0.041732147 0.094928816 0.04369718
000140 94 6c 5e 3d 10 a3 9f bc 00 ea c7 bd 4e ad 85 bd
       0.054302767 -0.019486934 -0.09761429 -0.06527196
000150 d0 0e f8 bc a4 61 38 bd d0 3f f0 bc 00 61 6e bc
       -0.0302805 -0.045014992 -0.029327303 -0.014549494
000160 b8 1e a3 3d 66 ae 82 3d ba 4b a8 3d d6 57 e3 3d
       0.079648435 0.0638092 0.08217569 0.11100738
000170 90 db 31 bc 28 ba 61 3d f0 25 e2 3d ca 3a cf 3d
       -0.01085557 0.055109173 0.11042392 0.10118635
000180 28 81 fd bc 8c 33 65 bd 4e 6e e1 3d 98 31 83 3d
       -0.030945376 -0.055957362 0.11007367 0.06405944
000190 80 d4 ce bc 04 d9 e9 3d d8 f6 06 bd c4 52 c8 3d
       -0.025247812 0.114183456 -0.032950252 0.09781411
0001a0 ca 2f ac 3d 74 1d 72 bd d2 87 90 3d e0 67 0f bd
       0.084075525 -0.05911012 0.07057156 -0.035011172
0001b0 94 47 e8 bd bc a9 35 bd c0 b5 ec bb 08 e4 1b bd
       -0.113417774 -0.044351324 -0.0072238147 -0.038059264
0001c0 ae 4d b1 3d 18 9c b7 bd 60 31 cb 3c 56 44 f8 3d
       0.08657394 -0.089653194 0.024803817 0.12122409
0001d0 80 77 2e 3b f0 5e 38 bc 40 ef 8a 3c d8 2a 82 bd
       0.002662152 -0.011253104 0.016959786 -0.06355828
0001e0 3c 2d cf 3d de 2e c5 bd f4 55 67 bd 10 ab e2 3d
       0.1011605 -0.0962808 -0.056478456 0.11067784
0001f0 38 d0 8f 3d 28 f2 80 3d 74 d1 0b 3d 7c 9f 44 3d
       0.070221364 0.06296188 0.034135297 0.04800366
000200 60 d2 f2 3c 85 ac c6 3d 07 d0 47 3c 40 6c 8a bd
       0.02964133 0.09700874 0.012195594 -0.06758928
000210 93 8e 15 be b4 2a f2 bd 1d 0a 79 3d ed f7 ac 3d
       -0.14605169 -0.11824551 0.06080066 0.084457256
000220 4d f8 81 3b 39 6d e8 bd f9 87 d5 3d 20 b0 fd bc
       0.0039663673 -0.113489576 0.10426325 -0.030967772
000230 bc 36 a6 bc f0 56 cf bd 5a b7 24 bd fa 9a 44 3d
       -0.020289771 -0.10124004 -0.04021392 0.04799936
000240 b0 2c f1 3c 90 a9 a0 3d 80 53 f6 ba 4c d5 52 3d
       0.029440254 0.078448415 -0.0018793195 0.051472947
000250 98 0c 62 bd 50 e9 c7 3c 90 62 07 3d da 06 de 3d
       -0.05518779 0.024403244 0.03305298 0.108411506
000260 e2 83 a5 3c cc e8 49 bc d9 a2 9f 3d 9c 61 98 3d
       0.020204488 -0.0123235695 0.077947326 0.074404925
000270 f9 d7 d4 3d e0 ba 0f 3c 1c 53 34 3d 38 cc c2 3c
       0.10392756 0.008772582 0.04402457 0.02377902
000280 82 c2 c3 3d 00 a7 3a bd a5 24 06 be 17 c1 8a 3c
       0.09558584 -0.04556942 -0.13099916 0.016937776
000290 1d 1c 9e 3d 78 98 f6 bd bc 61 9f 3d 6f af 17 3e
       0.07720206 -0.120408 0.07782313 0.14813016
0002a0 57 67 05 bd 4c e3 47 3b cc 95 c2 3d 08 15 a4 3c
       -0.032569256 0.003050047 0.09501228 0.02002956
0002b0 38 11 b2 bc e2 48 23 bd 94 c8 06 3d 42 eb fb bd
       -0.021736726 -0.03986443 0.03290613 -0.12300731
0002c0 e8 32 8f bc e0 c8 04 bd ea ae fb 3d 38 fc ce bc
       -0.017480329 -0.03241813 0.122892216 -0.025266752
0002d0 92 60 d5 bd f8 e4 38 bd a1 1c 92 bd 0c e7 63 bd
       -0.1041881 -0.045140237 -0.07134367 -0.055640265
0002e0 f8 36 d2 3d 42 b4 ab 3d c6 ba f4 bd 2e 70 6b bd
       0.10264391 0.08383991 -0.11949687 -0.05748003
0002f0 f0 e0 30 3d 6e 43 19 be 32 cf 9d 3d 90 ca 01 bd
       0.043183267 -0.14967129 0.07705535 -0.03168732
000300 a8 f8 c8 bc c0 06 3c bd 41 3b 45 bd 9d 47 b8 bd
       -0.024532631 -0.045904875 -0.048152212 -0.08998034
000310 17 a7 53 3c 64 f6 0d 3d e4 01 e6 3d 7b 30 62 bb
       0.012918255 0.034658805 0.11230829 -0.003451376
000320 d7 17 e4 3d ab 88 29 be 38 9c 4a 3d 6b 0f 03 3e
       0.111373596 -0.16556041 0.049465388 0.1279885
000330 c2 02 8d bd e8 de 0a bd 5c 55 46 3e 55 c4 60 be
       -0.06885292 -0.033903986 0.193685 -0.21949895
000340 ff b4 e3 3b 35 22 03 bd 0e 85 f5 3d a8 46 b0 3d
       0.0069490667 -0.032015044 0.11988269 0.086072266
000350 ed c6 0d be e5 62 4b 3d ca 6d d6 3d ea 25 16 3e
       -0.13845415 0.04965486 0.10470159 0.146629
000360 97 49 57 3c 04 7e 5a 3d 7a ca ae 3d 06 12 86 bd
       0.013140104 0.053342834 0.08534713 -0.065464064
000370 92 0f 82 bd 0b db fa ba ac 6f 25 3d 9e e7 35 bd
       -0.06350626 -0.0019138766 0.0403897 -0.04441034
000380 5a 5a cc bd 94 af 8f 3d 96 08 3e bd a0 24 47 bc
       -0.09978171 0.07015911 -0.046394907 -0.012154728
000390 0a 2a 03 be 9c 1f c9 3d 67 3a 44 bd bb 3f b2 bd
       -0.12809005 0.09820482 -0.04790726 -0.08703562
0003a0 16 13 68 bc ba 99 d2 3d e4 8d fc bd 78 0d 4a 3d
       -0.014164707 0.10283227 -0.12331751 0.04932925
0003b0 f5 36 06 3e 15 f0 9f bd 52 89 b2 3d 80 ce 88 3d
       0.13106902 -0.07809464 0.08717598 0.06680012
0003c0 1e b0 1b bd 7e 3a a7 bd 57 65 93 bb 90 70 33 bc
       -0.038009755 -0.081654534 -0.0044981646 -0.01095213
0003d0 e6 15 cf 3d 00 1c e8 39 3a 12 cf bd 1c 2c f7 bd
       0.10111599 0.0004427135 -0.10110898 -0.1206896
0003e0 c8 0d e7 3c 22 a4 59 bd 7b 3e 92 bd 9d 74 aa bd
       0.028204814 -0.053135045 -0.071408235 -0.083230235
0003f0 49 bd 09 3d 00 a0 4b 3b cc fc d3 3d 29 74 21 bd
       0.033627782 0.003107071 0.103509516 -0.03941742

fc.weight f4 [5, 64]
000000 f6 b1 ad 3c 00 b8 88 3d d3 65 c6 3c 9d 38 bb 3b
       0.021203022 0.0667572 0.024218475 0.005713536
000010 c0 2e 24 bd 96 fc cd bd 13 6b 46 3c 53 76 a6 bd
       -0.040083647 -0.100579426 0.012110489 -0.08128037
000020 30 ec fb bd bd 58 05 bc 2f 7a 02 bd 5b 01 c0 bc
       -0.123009086 -0.008138833 -0.031854805 -0.023438146
000030 61 7c 8e bd 99 3d 30 bb 24 92 38 3d 80 be 55 3d
       -0.06957317 -0.0026892184 0.045061246 0.052183628
000040 a7 7b 9a bb f4 39 aa bf d4 a2 f5 bd 73 43 5a 3d
       -0.0047144475 -1.3298936 -0.119939476 0.05328698
000050 fe e8 24 3d 34 5f 51 bd 30 9a be bd ad 04 ec bd
       0.04026126 -0.051116183 -0.09306753 -0.11524329
000060 91 a2 a2 be ad 82 5b 3d dd 2a 84 3d 78 55 ad 3d
       -0.31764653 0.05359142 0.06453488 0.084635675
000070 9c d9 82 3b 1c 4f 07 bc 3a 6e 9d bd 09 de 09 bd
       0.003993226 -0.008258607 -0.0768704 -0.033659015
000080 c8 4b a6 3d 20 fa 89 3b 7c 92 8b bb 1c c9 2a bc
       0.08119923 0.0042107254 -0.0042594057 -0.010423925
000090 9e ae b3 3f 2a b9 d4 3c 78 c5 26 bc de 81 d2 3d
       1.4037664 0.0259672 -0.010178916 0.102786765
0000a0 8d c0 f8 3c 5b 45 7e bf e8 e8 19 bd f6 56 9b bd
       0.030365253 -0.9932458 -0.037575632 -0.07584946
0000b0 fd 8d 37 bc 34 1d b1 be c3 42 31 3d 1a e7 40 bc
       -0.011203286 -0.34592593 0.04327656 -0.011773849
0000c0 14 1d 14 be 0a 59 f6 bd d4 61 03 3d 00 30 66 3c
       -0.14464217 -0.120287016 0.032075718 0.01404953
0000d0 63 24 89 3f b8 43 f2 bc 8a bb 11 3d 48 02 dd bd
       1.0714229 -0.029573306 0.03557924 -0.10791451
0000e0 98 87 c5 3d 18 76 a7 bd 42 cb c3 3d 6b 5c 2b 3e
       0.09645003 -0.081768215 0.09560253 0.16734473
0000f0 1b 0e 73 3c 65 de b7 bd 7d e9 98 bd a5 0c 3e 3d
       0.014834906 -0.08977965 -0.07466409 0.046398778
000100 8e d8 68 3d 71 8a 1c 3e de 6c 0e be b9 26 27 bd
       0.056847148 0.15287186 -0.13908717 -0.040808413
000110 5d 93 0b bd 24 61 07 3d 63 e2 cb 3d b1 9b 3d 3c
       -0.034076083 0.033051625 0.09955289 0.011572764
000120 80 85 e3 3d b3 41 66 3d 6b 2d a5 bd a6 13 c9 bc
       0.111094475 0.056215 -0.080653034 -0.024545502
000130 78 cb 8b 3c 88 42 f1 bd e1 94 3c 3d 1b 90 cd 3e
       0.017064795 -0.11780268 0.04604042 0.40149006
000140 f9 d3 cb bd dd f9 a2 bf 9e 2c 86 3d f5 47 08 bd
       -0.0995254 -1.2732502 0.06551479 -0.03327175
000150 1b 48 b9 bd 61 e0 90 bd 9c cb 9f 3d 73 38 c5 bd
       -0.09046956 -0.07074047 0.07802507 -0.096299075
000160 60 18 63 be fd 98 29 bd 98 af 80 3d c0 99 50 bd
       -0.22177267 -0.041405667 0.06283492 -0.050927877
000170 15 22 a3 3d 79 09 da bd 8c 99 ae bd d1 98 24 3c
       0.07965485 -0.10646338 -0.085253805 0.0100462
000180 00 29 b6 bd 68 ee 8f 3c 61 f8 8b bd f3 ac ae bc
       -0.08894539 0.017569736 -0.06834484 -0.021322703
000190 1a d3 a4 3f 38 1c 3b 3d 9f 1d bd 3d 37 6e a1 be
       1.2876923 0.04568121 0.092341654 -0.315294
0001a0 d3 5e 0f 3d 1c ff 7c bf c0 83 4d 3d 1a 5f 96 bc
       0.03500254 -0.98826766 0.050174475 -0.018355895
0001b0 1f 3e a1 3d 99 de de 3d 89 95 33 3e 4b 4a 2a 3d
       0.07873177 0.10882301 0.17537512 0.041574758
0001c0 d1 e1 d8 3d 90 83 1a bc 5c e9 6d bc b0 54 3b bd
       0.10589946 -0.009430781 -0.014520969 -0.04573506
0001d0 ff 3c 89 3f 94 0e 47 3d 2d 17 ab bc 90 d6 62 3d
       1.072174 0.048597887 -0.020885075 0.055380404
0001e0 50 96 e0 3c 2d 6a 0a be 6e 71 1b be b5 d1 e6 ba
       0.027415425 -0.13517065 -0.15179989 -0.0017610105
0001f0 1b 71 91 3d c8 ca 35 3e 76 7a a8 3c 17 d6 e2 3d
       0.07101651 0.17753136 0.020566206 0.11075991
000200 4a f5 9e 3c c8 95 22 3d 9f a1 91 bd ab 7f 95 bd
       0.019404072 0.039693624 -0.07110905 -0.07299741
000210 75 ad 83 3d 26 c2 9c 3d 2b 57 a4 bd a7 d3 07 bd
       0.06429569 0.076542184 -0.080244385 -0.03316083
000220 ce 81 f3 3d 55 e7 30 be e5 b6 bc bc f7 68 e2 bd
       0.11889993 -0.17275746 -0.02303643 -0.11055177
000230 04 71 ff 3d 25 26 80 3b 47 e0 3a 3d 98 b4 eb 3e
       0.12472728 0.003910797 0.045624044 0.4603622
000240 9d b7 fb bb 27 a2 a1 bf 78 cb 8c 3c 52 f4 ad 3d
       -0.0076818005 -1.262761 0.017186865 0.08493866
000250 a1 72 f9 bd d0 09 ac bc 64 d6 6e 3d 67 8d 23 bd
       -0.12180067 -0.021000773 0.058309928 -0.039929774
000260 0b 2d 83 be c2 96 de 3b 33 1e 27 3d 90 4a 53 bd
       -0.25620303 0.006792874 0.040800285 -0.05158478
000270 4d fd 36 3d a1 11 b9 bc bc 22 ac 3d de e6 38 bd
       0.04467516 -0.022591414 0.084050626 -0.045142047
000280 a4 3d e4 bd c8 a4 85 bc 2e 9a f9 bc 1a e2 bc 3d
       -0.111445695 -0.016313925 -0.030469026 0.09222813
000290 e8 6c a8 3f 4c 61 75 bc 4f 2a 30 bc d8 74 b4 3b
       1.3158236 -0.014976811 -0.010752275 0.005507093
0002a0 40 0b cf bd d5 f2 83 bf ac be ad 3d 6d 94 0c 3d
       -0.10109568 -1.0308481 0.084836334 0.034321237
0002b0 b9 db f8 bc 72 50 ec 3e 83 54 ae bc 50 87 0b 3d
       -0.03037821 0.46155125 -0.021280533 0.03406459
0002c0 54 18 ef bd 54 e7 3d bd ca 97 8f 3d a6 d9 ce bd
       -0.11674562 -0.04636319 0.07011373 -0.10100107
0002d0 e6 85 66 3f d0 7b 9b 3d 16 4e 26 bd f0 4d a1 bc
       0.9004806 0.07591975 -0.040601812 -0.019690484
0002e0 a0 0f 5a 3d b6 e8 57 be 15 8b db 3d 8e fd 23 3b
       0.053237557 -0.21084866 0.10719887 0.0025022957
0002f0 42 79 74 3d 27 80 ca 3d 66 3a 8f bd e8 4a d8 bc
       0.059685953 0.09887724 -0.069935605 -0.026402906
000300 fe b7 52 3d e2 f7 c3 3c 65 e9 99 bc f9 e0 0b 3d
       0.051445 0.02392191 -0.018788049 0.034150098
000310 ab 3a a2 3c 78 b5 a3 3d bb 6f 76 bd aa 39 55 bd
       0.019803366 0.07993597 -0.06016515 -0.052056946
000320 22 fc 2b 3c 44 80 58 3a 5b d6 1c bd 3f c5 66 bd
       0.010497125 0.0008258859 -0.038290363 -0.056340452
000330 ee 3a 31 bc 5e 41 f7 3d b7 ba b0 3d 23 31 5e be
       -0.010817273 0.12073015 0.08629363 -0.21698432
000340 e6 ba 0b 3c 34 57 aa 3f 10 05 0d bc b2 58 9d bd
       0.008528447 1.3307862 -0.008607164 -0.07682933
000350 43 32 ef bd b5 4f 92 3c a8 dd e5 bc 87 f0 71 3d
       -0.116795085 0.017860273 -0.028059795 0.059067275
000360 b8 14 8d be 3b 69 d0 3c 79 9c f2 bc bc b9 08 3d
       -0.2755487 0.025440803 -0.029615628 0.033380255
000370 9b 41 48 3d da 84 7c 3d 88 69 e8 3c 94 88 93 3c
       0.04889069 0.061650135 0.028370634 0.018009461
000380 00 aa fb bb 00 b7 92 bb 5f 59 88 bd 35 0d af bd
       -0.0076801777 -0.0044773817 -0.06657671 -0.08547441
000390 20 7e a5 bf b9 89 ea bb 68 c2 02 3e 44 e4 3a bb
       -1.2929115 -0.007157531 0.12769473 -0.0028517405
0003a0 84 a1 10 3d eb dc 8e 3f 48 22 e1 bd 56 97 7d ba
       0.035310283 1.1161169 -0.10992867 -0.0009673735
0003b0 1e f1 cb bd 11 df c2 3e dd 1e cd bd bb c3 bc 3d
       -0.09958099 0.3806081 -0.10015652 0.0921702
0003c0 55 c8 06 3c f4 87 ed bd c8 6c af bb ac f8 84 bd
       0.008226474 -0.115981966 -0.005353544 -0.06492743
0003d0 38 b0 80 bf 9a 7a c0 bd 74 13 5f 3c 3c 95 d2 bd
       -1.0053778 -0.093983844 0.013615478 -0.102823704
0003e0 ce 0a 9d bd c1 76 4d 3b 42 cd e6 bd a6 d9 77 3d
       -0.076680765 0.00313513 -0.112696186 0.0605103
0003f0 69 0f ec 3c 21 04 d4 bd 29 9f 2b bd 15 0a c5 bb
       0.028815942 -0.1035235 -0.041899834 -0.0060131648

fc.bias f4 [5]
000000 92 11 83 3d 37 b6 05 be f6 74 01 3c 9c 9e 68 bd
       0.06399836 -0.1305779 0.007901421 -0.056791887
000010 a6 4b 3f bc
       -0.011675751
