models/pytorch_lstm_model.pth (torch, 666550 bytes, 6 tensors)

lstm.weight_ih_l0 f4 [256, 581]
000000 74 6d 06 3e ac 12 45 3b ef 39 10 3b fa 9f b1 bc
       0.1312769 0.0030070944 0.0022007187 -0.021682728
000010 d5 de ce 3d 7c f4 a9 3d 7c be 80 3d 5c 4d e5 3c
       0.101010956 0.08298585 0.06286332 0.02799099
000020 be b7 89 3c 10 cc 58 3d 74 22 e7 3d 5a 39 0d 3e
       0.016811248 0.052928984 0.11285868 0.13791409
000030 7d 17 15 3e 4d 44 d4 3d 85 1e 99 3d 40 00 b0 bb
       0.14559741 0.1036459 0.07476524 -0.0053711236
000040 1a c4 d7 3d 68 68 6a 3d 80 1e 6b bb c7 ed b3 3d
       0.1053545 0.057228476 -0.0035876334 0.08785587
000050 0e d4 b0 3d a6 60 d9 bd b4 7f cb 3d c0 3e ec 3b
       0.08634196 -0.10614137 0.09936467 0.007209629
000060 08 e7 1f bd a8 ad b3 bd b0 b0 d3 bc 30 22 5d bc
       -0.039038688 -0.08773357 -0.025841087 -0.0134969205
000070 90 4b fe 3d 64 ec ba 3d b2 08 d5 3d 0d d8 f1 3d
       0.12416756 0.09127119 0.10402049 0.118087865
000080 64 6c 98 bd 3e 54 cb 3d 34 83 28 bd bc 82 c3 bd
       -0.07442549 0.09928177 -0.04114075 -0.0954642
000090 c8 23 ca 3c 8e 28 9e 3d 20 37 69 bd c0 97 de bc
       0.024675265 0.07722579 -0.056937337 -0.02717197
0000a0 f8 18 a2 bd 44 a3 b5 3d fc 24 96 3d d2 75 8e 3d
       -0.07914919 0.08869031 0.07331273 0.06956066
0000b0 e0 87 ed 3d bc 58 ed 3d 40 db e0 bd 00 12 9e b9
       0.11598182 0.1158919 -0.109793186 -0.0003014952
0000c0 bc e2 0b 3d 80 86 1c bc 58 4c b6 3d 66 b2 b6 bd
       0.034151778 -0.009553552 0.0890128 -0.089207456
0000d0 ce e1 fe 3d 28 d0 ec 3c 70 1d 5d 3c 61 48 91 3d
       0.124454126 0.02890785 0.013495788 0.07093883
0000e0 50 31 e7 bd c8 c9 54 3d ca 92 83 bd f4 55 45 bd
       -0.112887025 0.051950246 -0.06424482 -0.048177674
0000f0 f0 48 f5 bc 40 36 d7 3c a8 00 31 3d 74 ac d5 3d
       -0.029942006 0.026270986 0.043213516 0.104332834
000100 28 65 f3 bd 78 55 76 bd c0 1b f3 bb 00 1f 71 3c
       -0.118845284 -0.060140103 -0.0074190795 0.014716864
000110 a0 0a 57 bc 94 fd a0 bd 94 68 60 bd 70 d8 6f 3d
       -0.013125092 -0.07860866 -0.054787233 0.05855602
000120 f0 44 0a 3c a0 c7 09 bd 90 18 51 3d 5d fd cb 3d
       0.008439288 -0.033637643 0.051048815 0.099604346
000130 4c 1a bb bd 84 45 bc bd ea 45 ac 3d 80 dd 9a bc
       -0.09135875 -0.091929466 0.084117725 -0.018904448
000140 70 3b 5a bd 45 d7 a7 bd 5c 42 88 3c bc 9c 9e 3d
       -0.05327934 -0.08195356 0.016633205 0.077447385
000150 94 da ec 3d 57 15 ba 3d 0f 47 ad bd b0 95 b3 3d
       0.11565128 0.090861015 -0.08460819 0.08768785
000160 30 36 9e 3d 00 2c 74 3b 0f d1 cc 3d 40 d6 19 3d
       0.07725179 0.0037257671 0.10000812 0.03755784
000170 f6 7e 8d 3d 00 95 f9 3c 24 1d 35 3d d0 12 29 3d
       0.069089815 0.030466557 0.044217244 0.041277707
000180 f2 73 e1 bd 94 4c 6a 3d a0 2e 1f bd c0 64 2e 3b
       -0.11008443 0.057201937 -0.038862824 0.0026610345
000190 15 fa 21 3c de cf 98 3d 2c 67 df 3d 68 eb 2d bd
       0.009886284 0.074615225 0.1090835 -0.04246083
0001a0 94 40 24 3d 68 3c 46 3d 10 bf 24 3c 60 dd a2 bc
       0.04010065 0.04839745 0.0100553185 -0.01988095
0001b0 82 49 80 bd f8 5f 66 bd 10 69 f1 3c 53 c2 38 3d
       -0.062640205 -0.056243867 0.029469043 0.045107197
0001c0 64 89 cc 3d 56 50 9b 3d a0 73 01 bd d4 c1 19 bd
       0.09987143 0.07583682 -0.03160441 -0.037538365
0001d0 7c cd ae 3d 68 e4 e7 3c 80 f6 30 bc ea c1 9b 3d
       0.08535287 0.028307155 -0.010800958 0.076053455
0001e0 58 ad 75 bc f8 68 a1 bd b8 f2 e3 3c e8 ba b1 3c
       -0.014994942 -0.07881349 0.027825698 0.02169557
0001f0 d0 1f 0e 3d 4c ae a9 3d f0 1d e9 3c e9 d8 c2 3d
       0.034698308 0.082851976 0.028456658 0.095140286
000200 22 d3 d1 bd 62 65 84 bd 68 c8 88 bd 10 96 4d bc
       -0.102453485 -0.0646465 -0.066788495 -0.012547985
000210 74 5e 48 3d 71 c9 29 bc 80 c3 e9 3d ae bd 3a bd
       0.048918203 -0.010362969 0.11414242 -0.04559105
000220 cc bd c4 bd e8 b7 a5 3d b6 36 f0 3d 56 e3 36 3d
       -0.096065134 0.08091718 0.11729185 0.0446504
000230 5e 2e d9 bc e2 45 bf bd ab 75 13 bd e0 68 5b 3d
       -0.026511367 -0.09339501 -0.03600089 0.053566813
000240 60 fd 96 3c 3d a7 df bd fe 77 a5 3d f2 c7 b4 3d
       0.018431365 -0.1092057 0.08079527 0.08827199
000250 cd a1 d3 3d b8 93 26 3d 6c 71 91 bd 34 4f 9f bd
       0.103335954 0.04066822 -0.07101712 -0.07778779
000260 ac d5 c1 3d 30 3e b8 bd 7d 62 cc bd 0a 0c ee 3d
       0.09464583 -0.08996236 -0.09979723 0.1162339
000270 17 ed 11 bd e8 13 c8 3c 9c c9 72 3d 8c f3 9f bd
       -0.035626497 0.024423555 0.0592743 -0.07810125
000280 f6 18 c2 bd aa d5 da bd 52 95 f6 3d 26 f2 f8 bc
       -0.09477417 -0.106852844 0.12040199 -0.030388903
000290 20 b3 db bc 3a d1 c0 3d c0 6b a4 3d d9 d9 3c bd
       -0.026818812 0.09414907 0.08028364 -0.046106193
0002a0 32 67 17 bc 84 a0 90 3d 80 7a 0a 3c 68 7d 3c bd
       -0.009240912 0.07061866 0.008452058 -0.046018034
0002b0 46 9e 85 3d e0 5b 8f 3c bc ae 1b 3d 90 8f f7 bd
       0.06524329 0.017499864 0.038008437 -0.12087929
0002c0 96 16 a5 bd 13 96 23 3d 24 e0 dc bd c0 b7 eb bc
       -0.080609486 0.039938044 -0.10784939 -0.028774142
0002d0 e8 64 df 3c a6 96 db 3d 70 22 58 3c e8 25 db 3d
       0.027269796 0.10722093 0.013191804 0.107005894
0002e0 00 39 e3 ba ce cc a4 3d 8c 02 9d 3d 4b a8 6f bd
       -0.0017335713 0.08046876 0.076665014 -0.058510106
0002f0 00 ac d8 b9 da ec fe bd 0a 5d d1 3d 30 7c db bd
       -0.0004132688 -0.124475196 0.10222824 -0.10717046
000300 3a 26 84 bd ca 67 85 3d 8a af e7 3d 5a a3 ce 3d
       -0.06452604 0.06513937 0.11312778 0.100897506
000310 ec db 6e 3d 74 ba c5 3d 7c 7d c9 bd 6a 12 fa 3d
       0.058315203 0.09654704 -0.09838387 0.122105435
000320 5c af 09 3d 3c b0 01 3d f4 55 1c 3d 34 b8 36 3d
       0.0336145 0.03166221 0.03816791 0.044609264
000330 68 7c ee bd 40 d3 aa 3b 00 46 7d 3a 28 96 8a bd
       -0.11644822 0.0052131712 0.0009661615 -0.06766921
000340 00 f5 66 3c 40 cd f3 bd a2 ab d6 bd f1 67 c0 3c
       0.0140964985 -0.11904383 -0.10481955 0.023487063
000350 fc 27 9d bd 76 fe ae 3d 30 1c 85 3d 04 60 b4 3d
       -0.07673642 0.08544628 0.06499517 0.08807376
000360 08 1b 64 3d c4 dc 1e bd 60 63 9a bb 18 c2 39 3d
       0.05568984 -0.038784757 -0.0047115535 0.045351118
000370 f8 0f 95 3c c8 e8 79 3c 10 50 a8 3d 80 d2 5a 3d
       0.018196091 0.015253253 0.08218396 0.053423405
000380 3e bf bc bd 88 e5 34 bd ac 52 38 bd 80 0d be bd
       -0.09216164 -0.04416421 -0.045000717 -0.09279919
000390 83 86 fd 3c ac 61 3f bd d6 c6 e7 3d c7 4b b7 3d
       0.03094793 -0.046724007 0.11317222 0.0895
0003a0 fa 6e ff bd 18 cf 95 3c 30 fa ed bc 90 98 c5 bc
       -0.12472339 0.018287227 -0.029049963 -0.024120599
0003b0 20 8b bd 3d 96 aa 94 3d 18 7e 08 3d 3d 6a b0 bc
       0.092550516 0.07259099 0.033323377 -0.021535033
0003c0 8c f5 10 3d a0 39 1a 3d 6a 0d ac 3d d8 13 a8 bc
       0.03539042 0.03765261 0.08400996 -0.020517275
0003d0 bb 84 86 bd 68 1c 58 3d 35 b5 96 bd 5a 43 f9 3d
       -0.06568285 0.052761465 -0.07358781 0.121710494
0003e0 59 e4 40 bd 22 79 ea 3d 00 b6 ab 3a 54 fb 24 bd
       -0.04709277 0.114488855 0.0013100505 -0.040278748
0003f0 e0 e3 89 bd 60 1e 67 3c 70 c0 79 3d a0 e8 9a 3d
       -0.06732917 0.014106363 0.06097454 0.07563901

lstm.weight_hh_l0 f4 [256, 64]
000000 12 22 81 3d 6c 77 a8 bd e8 29 a4 3d 80 21 1d 3b
       0.063053265 -0.08225903 0.080158055 0.0023976266
000010 20 73 ce 3c d0 b2 cf bd c8 64 a7 bd 00 30 73 3a
       0.02520138 -0.10141528 -0.081735194 0.0009276867
000020 70 88 06 3c c2 eb a9 bd 58 e3 fd 3c b4 bc ea 3d
       0.00821124 -0.0829692 0.030992195 0.114617735
000030 a0 a0 0d bc 40 40 a1 3b 4c a0 ca 3d fc 0c 99 bd
       -0.008644253 0.0049209893 0.098938555 -0.0747318
000040 60 9c 8d bb a0 6e cd 3b 00 a4 ce 3d 42 67 9a bd
       -0.00432162 0.006269291 0.10089874 -0.07539226
000050 b8 3e 35 3d 18 3a ef bd 00 80 e9 3c a0 93 bf bd
       0.044249266 -0.116810024 0.028503418 -0.09354329
000060 c0 20 89 bb ae 95 8a 3d 00 11 0f 3b 30 81 6e bd
       -0.0041848123 0.067668304 0.00218302 -0.05822867
000070 40 b3 68 3d 00 d1 1b bb a0 99 06 3c c8 b8 fd 3c
       0.05681157 -0.0023775697 0.008215338 0.0309719
000080 36 ba fd 3d bc 5b 7d 3d 7c 13 49 3d 20 57 1a bd
       0.123890325 0.061855063 0.049090847 -0.037680745
000090 b8 22 81 bd e0 2e bb 3d ac 83 1b 3d 6c fe fc 3d
       -0.0630545 0.091398 0.03796737 0.123532146
0000a0 e8 c2 a0 bc d4 7a c3 bd 62 cc bb bd be d8 e8 3d
       -0.019624189 -0.09544912 -0.09169842 0.11369465
0000b0 f0 19 ba 3d ca c9 e6 bd 24 09 45 bd 9a 5f 8c bd
       0.090869784 -0.11268957 -0.04810442 -0.06854172
0000c0 b0 63 cc 3c de 7f b3 3d d0 15 2e 3c da ba 94 3d
       0.024949878 0.08764623 0.010625318 0.072622016
0000d0 84 b4 f0 bd ec 82 02 3d 3e fd eb 3d f2 7f 8b bd
       -0.117531806 0.031863138 0.115229115 -0.06811513
0000e0 38 62 cf 3d 4c bf 89 3d 10 fe 8f bc d0 31 1a bd
       0.101261556 0.0672594 -0.017577201 -0.03764516
0000f0 ec 90 56 bd d0 fa 02 bd ec 00 f7 3d f4 98 08 3d
       -0.052384302 -0.031977475 0.12060723 0.033348992
000100 00 fa 87 bc 7a 3c 81 3d 40 15 d8 bb 8c 8f df bd
       -0.016598701 0.06310363 -0.00659433 -0.10916051
000110 60 a9 a1 3b 62 1f ba 3d 0a 8f a4 bd 50 03 04 bc
       0.004933521 0.09088017 -0.08035095 -0.00805743
000120 50 78 45 3c e4 02 c8 bd 34 c8 75 3d 40 05 11 bd
       0.0120526105 -0.09766176 0.06000538 -0.035405397
000130 d8 b6 ea 3d 26 0e 96 3d c0 f5 1b bc 68 d7 a0 3d
       0.11460656 0.07326917 -0.009519041 0.078535855
000140 c0 59 e3 3b 0c 99 e5 bd fc e7 23 3d 80 ab da bb
       0.0069381893 -0.11210832 0.04001616 -0.0066732764
000150 40 a8 c6 bd 30 16 bb 3c 98 d0 95 bd 04 b7 81 3d
       -0.0970006 0.022837728 -0.07315177 0.063337356
000160 58 95 d7 bd 14 d7 fe 3d 0c 43 34 bd 20 9f e1 bc
       -0.10526532 0.12443367 -0.044009253 -0.027541697
000170 70 22 aa bd 00 fa 3c 3d 0a 7c 84 bd 22 08 fa bd
       -0.0830735 0.046136856 -0.06468971 -0.122085825
000180 18 0b 37 bd 68 b3 f9 3d cc a7 00 bd 52 d9 d9 3d
       -0.044688314 0.12192422 -0.031410024 0.10637154
000190 18 cb fd bd 38 a5 93 3d ca 23 f6 3d 18 64 f3 bd
       -0.12392253 0.07209247 0.12018545 -0.11884326
0001a0 60 a9 12 3c ac 36 14 3d f8 8f d9 bc 10 81 83 bd
       0.008951515 0.03618495 -0.026557907 -0.06421101
0001b0 90 dc 03 3c 18 47 33 3d 7a f8 cf 3d 80 16 8d 3c
       0.008048192 0.043768972 0.10154815 0.017222643
0001c0 a0 02 54 bc 28 c2 d0 3d 1a 82 ea bd b4 54 80 3d
       -0.012940079 0.10193282 -0.11450596 0.06266156
0001d0 6a 06 b9 bd 48 c3 bf 3c 64 e8 37 3d a4 20 c3 3d
       -0.090344265 0.023408547 0.04489936 0.0952771
0001e0 02 ab b9 bd a0 7f f3 3b ae 11 ff 3d 60 69 07 3c
       -0.0906582 0.0074309856 0.12454544 0.008264869
0001f0 90 63 24 bc 00 b7 ea ba a0 ea c4 3d a0 8f 0e bc
       -0.010033503 -0.0017907321 0.09615064 -0.008701235
000200 1c 9f c9 3d d4 6d 17 bd e0 8d 5c 3d 00 a3 33 bc
       0.09844801 -0.036969975 0.05384624 -0.010964155
000210 24 04 f5 bd 1a 56 a3 bd 1e 4f bf bd b8 a2 9b bc
       -0.119636804 -0.07975407 -0.09341262 -0.018998489
000220 c0 cb 4b 3c 3e f4 e6 3d 12 da c3 bd f4 03 b9 bd
       0.0124387145 0.11277054 -0.09563078 -0.09033957
000230 30 45 8f 3c 00 0e d6 3d 3a a0 cd 3d 30 b0 35 3d
       0.017489046 0.10451889 0.100403264 0.04435748
000240 9c b4 b5 3d 12 b3 ef bd 14 07 b7 bd be 32 ee 3d
       0.08872339 -0.11704077 -0.08936897 0.11630772
000250 dc 20 0b 3d 30 da 3e 3c 10 81 3f 3d 6e 29 ba 3d
       0.033966884 0.0116487 0.046753943 0.09089933
000260 42 4e 80 3d f6 dc ca bd 40 ee d6 3d 80 76 e0 bd
       0.062649265 -0.09905426 0.10494661 -0.10960102
000270 1a 8d c7 bd 94 08 44 3d 5c de da bd 08 83 4b 3d
       -0.0974371 0.047859743 -0.10686943 0.049685508
000280 7a 5c 98 3d 68 f5 14 3d d8 98 4a 3d d0 fc 4a 3c
       0.074395135 0.03636685 0.04946217 0.012389377
000290 00 96 9b bd 38 99 be 3c ce 1d e2 3d 6e 09 f4 bd
       -0.075969696 0.02326642 0.11040841 -0.11915861
0002a0 4c 97 da 3d 38 ae 80 3c dc 70 8f bd 0a b2 e6 bd
       0.10673389 0.015708074 -0.07003948 -0.11264427
0002b0 26 df 95 bd 98 00 c0 bc ec 62 1c bd 68 37 cf bd
       -0.07317953 -0.023437783 -0.038180277 -0.1011799
0002c0 22 d8 a8 bd 24 ff dc bd 60 c1 b4 3d 80 0e d0 3c
       -0.08244349 -0.10790852 0.08825946 0.02539754
0002d0 e0 cf 06 3c f6 f7 83 3d ee 52 84 bd e4 02 36 3d
       0.008228272 0.06443779 -0.0646113 0.04443635
0002e0 d0 44 18 bc 02 dd dc bd d0 b3 5a bd f0 cb 4a 3d
       -0.00929375 -0.107843414 -0.05339414 0.049510896
0002f0 38 a0 48 bd 40 36 48 3d e2 ca de 3d 28 69 20 3d
       -0.04898092 0.04887986 0.108785406 0.039162785
000300 9e f1 fb 3d 26 92 af 3d 62 c1 f5 bd d0 76 e5 bd
       0.12301944 0.085727975 -0.119997755 -0.11204302
000310 80 d0 88 bb 5a 31 98 3d 94 b0 34 bd 34 d8 2d 3d
       -0.0041752458 0.07431288 -0.04411371 0.042442515
000320 98 69 d6 3d 40 2b 73 3d a4 0b 1d 3d 48 9d 98 bd
       0.10469359 0.05936742 0.03834118 -0.07451874
000330 f2 b1 f8 bd 88 43 2c 3d 60 d4 44 3c 80 d6 77 3c
       -0.121433154 0.04205659 0.012013525 0.015126824
000340 50 f8 33 bd b0 6b 67 3d 68 48 b5 bd c8 f2 40 bd
       -0.04393798 0.056499183 -0.08851701 -0.047106534
000350 3a c3 a3 bd 14 d5 ed 3d 70 d6 6c bd e4 84 5a bd
       -0.07996221 0.11612907 -0.05782169 -0.05334939
000360 6e 87 b8 3d 16 d9 bb bd a8 ae ec bc 3e ff b1 3d
       0.09010206 -0.09172265 -0.028891876 0.08691262
000370 66 0e 86 3d 30 2c 14 3d 44 23 9e bd e6 b9 f7 3d
       0.06545715 0.036174953 -0.0772157 0.12096004
000380 20 fb c5 3c 34 3a 5c 3d a0 25 b3 3d 3c 46 f5 3d
       0.024167597 0.053766444 0.08747411 0.11976287
000390 00 76 0f bc f8 2c 3a 3d f0 63 66 3c 20 96 80 bc
       -0.008756161 0.04545304 0.014061913 -0.015696585
0003a0 38 9b fe 3d e8 70 c6 3d d8 b1 c9 3c c8 aa 0f bd
       0.124319494 0.09689504 0.024620935 -0.03507498
0003b0 90 e9 0b bd e2 31 d2 bd d0 95 76 bd 86 a7 cf 3d
       -0.03415829 -0.10263421 -0.060201466 0.101393744
0003c0 f8 78 74 bd 0a 4b 95 3d 7c 02 2d bd a0 de a9 3c
       -0.059685677 0.07289703 -0.042238697 0.020736039
0003d0 2c 92 96 3d 2a 06 cd 3d 90 4c 62 3d 50 a1 35 3c
       0.07352099 0.10010941 0.055248797 0.011085823
0003e0 a2 e8 ff 3d f4 98 a9 bd bc bf b0 bd f2 6f ee 3d
       0.12495543 -0.082811266 -0.086303204 0.116424456
0003f0 06 49 89 3d c0 16 21 bd 18 74 36 bd 40 7d df bd
       0.06703381 -0.039328337 -0.04454431 -0.109125614

lstm.bias_ih_l0 f4 [256]
000000 8c 79 97 3d 8c da 1c bd db 49 67 bd c0 85 de 3b
       0.0739623 -0.03829436 -0.05646692 0.0067908466
000010 22 60 7e 3d 6e ec ad 3c ec e6 fa bd 92 2a 29 3c
       0.0621034 0.021230903 -0.12251076 0.010325091
000020 a4 d7 2a 3d 7c 7c 4a bc d5 18 72 bd 6a 03 ae bd
       0.041709557 -0.012358781 -0.059105713 -0.08496745
000030 50 ad 24 bd 7a 74 8d bd 44 25 0b bd c2 70 8e bd
       -0.040204346 -0.06906982 -0.033971086 -0.069551006
000040 64 39 3a 3e a2 e0 db bd e0 11 b6 bd 8e 62 a8 3d
       0.18185955 -0.10736205 -0.08890128 0.08221923
000050 26 b3 a2 3d 30 39 67 bc e7 8d d8 3c fe d8 e3 3d
       0.07944326 -0.014112756 0.026434852 0.11125372
000060 ee 7f 99 3d 32 04 aa 3d f1 0b da bc 81 aa e5 bb
       0.07495104 0.083015814 -0.026617022 -0.007008851
000070 e5 c7 9b 3b c5 c2 20 3e 25 60 de bb 77 16 90 3d
       0.004754054 0.15699299 -0.0067863637 0.07035535
000080 d0 ab fb bc 86 2a 29 bd a8 ab 62 bd 04 ad 7b bd
       -0.030721575 -0.04130032 -0.055339485 -0.061444297
000090 5f b8 3a 3b 80 2d f6 3b e5 18 54 bc b4 84 4a 3d
       0.0028491241 0.0075127482 -0.012945388 0.04944296
0000a0 b5 81 33 3b d0 77 02 bc 40 3c e2 bb c4 db e4 bd
       0.0027390544 -0.007963136 -0.006904155 -0.111747295
0000b0 06 51 5e 3d f6 21 ba bc 40 67 af 3d 9c ee 39 3d
       0.05427649 -0.022721272 0.08564615 0.04539357
0000c0 fc b2 06 be 55 09 52 be 3d 4b 18 be 34 30 81 bd
       -0.13154215 -0.20511372 -0.14872451 -0.06308022
0000d0 fd 8b f8 bd bd 5e b6 3d 3d 34 eb 3d 2e 87 16 3d
       -0.12136076 0.08904789 0.11484573 0.03675001
0000e0 40 e7 de bb 7e 0d 89 3d ab 9e 02 3e 2c db 05 bd
       -0.0068024695 0.066920266 0.1275584 -0.03267972
0000f0 2b 10 42 be ac 7a 43 bd 27 b4 ed bc f1 f0 00 be
       -0.1895148 -0.04772441 -0.029016567 -0.12591912
000100 28 0e 82 3d 06 f5 a2 3d 12 17 b9 bd 64 7c 6e bd
       0.06350356 0.07956891 -0.090376034 -0.058224097
000110 00 18 a3 3a a4 f6 97 bd e0 dd a6 bd b4 92 ba 3d
       0.0012443066 -0.0742009 -0.08147788 0.09110013
000120 a4 ec 2e bd d4 46 6b bd f8 4c f2 bd 0c 06 bc bd
       -0.042706147 -0.057440594 -0.11831087 -0.09180841
000130 60 c2 d1 3c ac 45 55 3d e0 2d cf 3c 80 da 26 bb
       0.02560538 0.052068397 0.02529043 -0.0025459826
000140 28 54 61 3d c4 f7 dd 3d 00 72 37 bb 40 a4 4e 3b
       0.0550119 0.10838273 -0.0027991533 0.0031531006
000150 dc 9d 04 3d a8 7c 94 bc 58 6a 9d 3d 18 52 04 3d
       0.03237711 -0.018125847 0.07686299 0.032304853
000160 98 d1 cf 3d 00 b4 18 b9 90 7f 06 3c 80 1e a9 bb
       0.10147399 -0.00014562905 0.008209124 -0.0051611066
000170 20 2d 9e 3d 90 b2 29 bc 28 d5 e0 3d d4 7c c0 bd
       0.07723451 -0.010357514 0.10978156 -0.09398809
000180 da 04 d5 3d 32 80 d9 3d c6 7e a3 bd 24 be cc 3d
       0.10401316 0.106201544 -0.079831645 0.09997204
000190 70 52 37 3c 38 3c 55 3d e6 d4 c8 bd 90 a4 6b 3d
       0.011189088 0.052059382 -0.09806232 0.057529986
0001a0 d4 ee a7 3d 3c c8 51 bd 02 bf c5 bd f0 73 bd bc
       0.0819985 -0.05121635 -0.096555725 -0.023126572
0001b0 74 25 6f bd 90 f9 e7 bc ac 47 23 3d b8 14 74 3d
       -0.058385327 -0.028317243 0.039863274 0.05959007
0001c0 d0 b5 03 bc 18 56 b9 bc fa b7 f4 3d 20 33 53 3c
       -0.008038953 -0.02262406 0.11949153 0.012890607
0001d0 5a b1 e9 3d 90 06 50 bc 20 8c ab bb 10 2b 8e 3d
       0.1141078 -0.012696877 -0.00523521 0.06941807
0001e0 ce e6 cb 3d 90 46 f6 bc c6 1c 9a bd 90 9d e6 3c
       0.09956132 -0.030062944 -0.07525019 0.028151304
0001f0 0c b5 7a bd f0 cc da bc ec b4 1f bd c0 8a ad 3c
       -0.061207816 -0.02670905 -0.0389909 0.021184325
000200 9f eb 14 bd 48 df d1 3c ab dc f8 bb da d8 d4 bd
       -0.03635752 0.025619164 -0.007594665 -0.10392924
000210 9c 02 87 bd 5b 9e 56 3e a8 37 99 bc 68 78 21 3d
       -0.065922946 0.20958845 -0.018703297 0.03942147
000220 58 85 90 bc a8 e6 94 bd fd 51 b9 bc f6 85 54 bd
       -0.017641708 -0.07270557 -0.022622103 -0.051885568
000230 70 6a 42 bd fe de 9d bd 58 b2 d1 bd 08 a6 90 bd
       -0.047464788 -0.07708548 -0.102390945 -0.07062918
000240 e9 4a 33 3e 00 0b 32 3a fd 65 58 3d 1d 54 13 be
       0.17509045 0.00067918 0.05283164 -0.14387555
000250 e8 65 4a 3d c0 70 c8 3b 90 b4 61 bc 03 28 da 3d
       0.04941359 0.0061169565 -0.01377596 0.10652163
000260 3f c9 d5 bd bb 00 94 3c a8 11 0a be 42 33 f6 3d
       -0.10438775 0.018066755 -0.13483298 0.120214954
000270 70 99 7d bc 54 e5 05 be c8 72 36 3e 58 e3 6d bd
       -0.015478477 -0.13075763 0.17817223 -0.05807814
000280 b8 11 e0 3c 32 a4 0b be b6 77 a6 bc 02 33 a9 bd
       0.027352199 -0.13636854 -0.020320754 -0.08261682
000290 d0 e6 ed 3d 6c 7b e4 bd ac 97 fc bd 78 9c f2 bc
       0.116162896 -0.11156353 -0.123336166 -0.029615626
0002a0 36 17 d2 3d 88 29 29 3d c4 8f 55 3d e1 af b8 3d
       0.102583334 0.041299373 0.05213906 0.09017921
0002b0 72 2c d6 bd f0 46 3d 3e 40 28 7b bc e8 c1 7f bd
       -0.10457696 0.18484092 -0.015329421 -0.062440783
0002c0 6a f4 b6 3d 42 dc 48 3d 91 cb 09 3e 98 d9 bd 3d
       0.08933337 0.04903818 0.1345656 0.09270018
0002d0 10 70 73 3b 2c fe 78 3c 3a ce 96 bd b7 b6 54 bd
       0.0037145652 0.015197318 -0.07363553 -0.051932063
0002e0 2e 15 ff 3d 6c 24 e9 3d 90 7a d1 3c 40 e2 c1 bc
       0.124552116 0.113839 0.025571138 -0.023667455
0002f0 38 12 68 3a 70 89 1b 3d ea 68 af bd c0 b9 48 bc
       0.00088528125 0.037972867 -0.08564933 -0.0122513175
000300 ac 1c e7 3d 10 18 19 bd 19 d8 56 3d 24 c1 67 bd
       0.112847656 -0.037376463 0.05245218 -0.056580678
000310 4e 62 4d bb f0 4d 51 bd b3 4c 78 bd d3 05 f2 3c
       -0.0031339112 -0.051099718 -0.06062002 0.029543793
000320 98 b1 07 bd d4 e6 0b bd 97 86 a6 bc d4 57 1c 3d
       -0.03312835 -0.03415568 -0.02032785 0.038169697
000330 4a 04 7a bd d1 fe df bc 82 79 80 3d 00 ad ed bd
       -0.061039247 -0.027343186 0.06273176 -0.11605263
000340 07 fe a2 3d e4 97 dd bd 50 b2 1d bd ac 49 f8 bd
       0.07958608 -0.108199865 -0.03850013 -0.12123427
000350 50 c5 ed bd 0c 49 97 bd 84 ea 0c bd 2c 5a 3b 3d
       -0.116099 -0.073869795 -0.03440334 0.04574029
000360 0e cd 81 3a 1d 2b ce 3d d2 60 88 3d c5 15 80 3d
       0.000990303 0.10066817 0.06659092 0.06254152
000370 ff 8e ff 3d 18 e9 75 be 28 c4 58 be 04 7c 91 bd
       0.12478446 -0.240147 -0.21168578 -0.07103732
000380 a6 f6 c8 bd 2b 5c 6b 3e 84 f0 c1 bd 00 e6 14 bc
       -0.098126695 0.22984378 -0.09469703 -0.009088039
000390 a2 a7 c6 bd 04 51 70 bd 9c 49 e9 bc 4c 9d 47 bd
       -0.09699942 -0.058671013 -0.028477482 -0.048733994
0003a0 de e1 c7 3d b0 db ee bd 40 7c 60 bc 1a f0 2e bc
       0.097598776 -0.11662996 -0.0137014985 -0.010677362
0003b0 84 24 a4 bd c4 dd 36 3d fe 6f bf bd e0 e7 c5 bc
       -0.08014777 0.044645086 -0.09347533 -0.024158418
0003c0 40 1e d0 bc a0 7f 17 bd 69 ac ff 3d 6c e2 88 bd
       -0.02540505 -0.036986947 0.124840565 -0.066838115
0003d0 02 08 10 3d f0 b9 4f 3d e4 18 24 be 38 bf fa bd
       0.035163887 0.050714433 -0.1602512 -0.12243503
0003e0 af 8f 19 3d 60 f2 59 bd e9 f2 80 bd 02 15 01 3e
       0.037490543 -0.053209662 -0.062963314 0.1260567
0003f0 b9 83 b9 3c 0e 2d c7 3d 01 4a 08 3e 90 47 64 3c
       0.022645818 0.097253904 0.1330948 0.013933077

lstm.bias_hh_l0 f4 [256]
000000 fb 78 1b 3e 28 1b c4 3c 51 e9 56 bd e0 48 d4 bc
       0.15182869 0.02393873 -0.0524686 -0.025913656
000010 3c ae d1 3c c0 17 74 bd 23 19 85 3c 73 1d be 3d
       0.025595777 -0.059592962 0.016247338 0.09282961
000020 4c 28 93 3d aa c8 c5 bb 3c 5a d5 3d ec d8 e6 bd
       0.071854204 -0.006035884 0.104176015 -0.11271843
000030 b0 3a 75 bc 5c 61 c9 bd e0 1d aa bb 44 34 92 bd
       -0.0149676055 -0.09833023 -0.0051915497 -0.07138875
000040 d1 cd 15 3e a8 47 ba 3d a6 78 80 3b 4a 1a 8e 3d
       0.14629294 0.090956986 0.0039206324 0.06938608
000050 d9 06 c5 3d 70 09 15 3d 1c 14 12 3e fb 16 10 3c
       0.09620447 0.036385953 0.14265484 0.0087945415
000060 c1 54 08 be 00 3f 28 3d 69 d3 7c bd 02 a7 1c bb
       -0.13313581 0.041075706 -0.061725054 -0.0023903255
000070 6f 01 3a bd 97 83 0d 3e 1c ae 21 3c bd 2f e8 3d
       -0.045411523 0.13819729 0.009868171 0.1133723
000080 f4 e1 79 bd c1 74 80 3d 8c dc 3c be d4 64 87 bd
       -0.0610065 0.06272269 -0.18443507 -0.06611028
000090 64 5d 02 be 32 d9 c6 bd ff ae 63 bb 36 b0 c6 bd
       -0.12730938 -0.097093955 -0.0034741757 -0.09701578
0000a0 cd c7 d9 bd 62 ba 99 3d a6 8a e3 bd b6 ab 81 bd
       -0.10633812 0.07506253 -0.111104295 -0.063315794
0000b0 1c 70 46 bd d1 36 ce 3a dc a6 7e bd 76 ed db bd
       -0.04844676 0.0015732889 -0.06217085 -0.107386515
0000c0 66 35 ad 3c 0f 63 b0 bc 31 27 ae bd 60 e5 25 bd
       0.021143626 -0.02153161 -0.08503569 -0.040501952
0000d0 82 1d 0f be 3f 2e 03 3e 04 85 59 3e 77 4e ee bc
       -0.139761 0.1281061 0.21242148 -0.02909015
0000e0 60 b4 45 3d 46 b0 0a be 5a 8c bf bc 54 63 a0 3d
       0.048267722 -0.13543805 -0.023382355 0.07831445
0000f0 a9 45 64 be 00 77 7b 3d 7a da 8f bd 4b 3f f8 bd
       -0.22292198 0.061392784 -0.07024093 -0.12121447
000100 fe 0e b2 3d 26 78 d0 3d b4 0a fd 3d 50 b6 60 3c
       0.08694266 0.101791665 0.12355557 0.013715342
000110 dc 34 63 3d 00 51 d0 bb e2 8c 90 3d e0 93 9f bb
       0.055470333 -0.006357312 0.07058121 -0.004869923
000120 6c 51 43 bd 0a e9 c4 3d 9c b9 51 3d d4 5f da 3d
       -0.04768507 0.09614761 0.0512024 0.10662809
000130 5e c7 f9 bd 4a 54 cc 3d 88 d2 bc 3c 08 d9 6f 3d
       -0.121962294 0.09977014 0.023049608 0.058556587
000140 64 6c 6b bd 60 0d a2 bd 98 d2 1f bd 34 04 11 bd
       -0.057476416 -0.07912707 -0.039019197 -0.0354044
000150 26 9d b1 bd fa 6e 91 3d 5e c5 a5 3d 60 ed 0e bc
       -0.08672552 0.07101245 0.080942854 -0.008723587
000160 bc 0a 3e 3d 18 d3 cf bd c0 2a 1f 3c 5a 21 a4 bd
       0.046396956 -0.10147685 0.009714782 -0.08014174
000170 40 7f f3 3c aa 56 e5 bd 32 34 ce bd d0 0a 37 bd
       0.029723763 -0.111981705 -0.10068549 -0.044688046
000180 8c b2 bd bd a8 91 0e 3d 60 4a 5a 3c b0 00 c1 3d
       -0.09262571 0.034806877 0.013323396 0.09423959
000190 04 a2 ba 3d 40 db 1e 3c 18 9d 39 bd 00 8b 43 3a
       0.09112933 0.009695828 -0.045315832 0.0007459372
0001a0 d2 3a 88 3d b8 b3 8b 3d a4 48 b4 3d 84 cf 28 3d
       0.06651844 0.06821388 0.088029176 0.041213527
0001b0 38 6b 3b 3d a4 89 69 3d b0 05 73 bc 34 03 fa bd
       0.04575655 0.05701603 -0.014832899 -0.12207642
0001c0 1a d7 c0 bd 70 17 ac 3c 4a d6 e9 bd 94 0e 65 bd
       -0.09416027 0.02100727 -0.114178255 -0.055922106
0001d0 1c 9a ef bd 28 59 1c 3d 2a ca eb 3d c0 12 9a 3c
       -0.11699316 0.038170964 0.11513169 0.018807769
0001e0 70 9d e5 bd 14 40 ae 3d 94 ff de bd 52 30 9a bd
       -0.112116694 0.08508316 -0.108885914 -0.075287476
0001f0 6c bf c5 bd fc 4b a3 bd 0a 68 cd bd 50 42 82 bc
       -0.096556515 -0.07973477 -0.100296095 -0.01590076
000200 ba 4c 74 bd 80 ec 45 3c cd c6 df bd 60 f1 96 bd
       -0.059643485 0.012080312 -0.1092659 -0.073702574
000210 e0 36 fd 3d 49 cf 54 3e be 7b 99 3d 78 ab 9f 3d
       0.12363982 0.20782198 0.07494305 0.07796377
000220 18 eb f2 3d 34 a9 ab 3d 22 9e 88 3c 50 87 92 bc
       0.11861247 0.08381882 0.016676966 -0.017886788
000230 40 9c 7e 3b ac 31 4a 3d 24 1f fb bd 64 5a 95 bd
       0.0038850456 0.049363777 -0.12261799 -0.07292631
000240 fa ca 2b 3e 0c 2d e5 bd 0a 8e 54 3d aa 42 5c be
       0.16776648 -0.11190233 0.05189327 -0.21509805
000250 f0 61 7a bc 60 c5 8f 3b ee 2f 8d bd b7 d4 68 3d
       -0.015282139 0.0043875426 -0.068939075 0.056843486
000260 9d 79 ea bd 7e cc 9a 3d 0f fb 5a bd 02 82 76 bd
       -0.11448977 0.07558535 -0.053462084 -0.06018258
000270 7c 84 21 bd 9c b6 7e 3c b3 30 24 3c 36 35 3c bc
       -0.039432988 0.015546467 0.010021376 -0.011487296
000280 80 92 4f 3d 4f 98 f0 3c aa 86 cc bd 94 43 0b bd
       0.050676823 0.029369501 -0.09986623 -0.033999994
000290 ec 3e 20 3d e0 fe 84 3b cb f5 1c be 10 d6 12 bc
       0.039122507 0.004058704 -0.15328138 -0.008962169
0002a0 44 0f ae 3d 54 7d 1d 3d 00 86 2f bb 63 81 de bd
       0.084990054 0.0384496 -0.002678275 -0.10864522
0002b0 4c a7 5a bd 5e df ac 3d 88 5b fb 3d 6c db 39 3d
       -0.053382203 0.084410414 0.122733176 0.045375273
0002c0 87 da 1a 3e 03 00 93 bd 72 37 50 bd 25 ee 39 bc
       0.15122424 -0.071777366 -0.050834127 -0.011348282
0002d0 d5 77 25 3c 79 d4 91 3d 30 6e b5 bc 50 0f da bd
       0.010099371 0.07120604 -0.022147268 -0.10647452
0002e0 94 3e e5 bd 9e 22 a2 bd 90 12 7b 3c 80 f2 49 3d
       -0.111935765 -0.07916759 0.01532425 0.04930353
0002f0 9b 71 a4 3c 48 4b 11 bd 1a 4d e1 3d ce 22 f4 bd
       0.020073703 -0.035472184 0.11001034 -0.11920701
000300 02 7b 2a 3e ba 9b fc 3d ef dd 63 3d b4 c3 37 3d
       0.16648486 0.1233439 0.055631574 0.04486437
000310 f6 fc e1 bd e2 64 bf 3d 81 b6 b2 bc c3 b3 15 bc
       -0.110345766 0.09345414 -0.02181554 -0.009137097
000320 0a d2 f5 3d c7 a1 85 bb 43 9d 22 bd 30 72 0b bc
       0.120029524 -0.0040781233 -0.039700758 -0.008511111
000330 f7 7b c0 3d 17 e7 24 3c f6 fa cf bd f8 7d ed bc
       0.093986444 0.010064862 -0.10155289 -0.02899073
000340 66 bd c6 bc a0 29 6b bd 5c b7 15 bd d4 64 04 bd
       -0.024260234 -0.057412744 -0.03655182 -0.03232272
000350 d2 f9 f5 3d d4 2f c0 3d 05 be 0d bd b0 c9 8c bc
       0.1201054 0.093841225 -0.034605045 -0.017186016
000360 e3 f0 eb bb bb f6 87 3c ba b8 e3 3d e5 5f f7 3c
       -0.007200347 0.016597142 0.11119218 0.030197093
000370 ae 67 11 bd 3e a5 22 be fa 2e ae 3c bf d0 9f 3d
       -0.035499267 -0.15883347 0.021262635 0.07803487
000380 40 83 c1 bd 8c fe 3e 3e 2c bb 64 3d 3c a7 d1 3d
       -0.09448862 0.1865179 0.055842564 0.102369756
000390 b0 aa 14 bd 83 0a 56 3d 9a c1 95 3c 60 e3 f1 3c
       -0.036295593 0.05225612 0.018280793 0.029527366
0003a0 18 a3 d6 3d cc fd 58 3d d6 2f ba 3d dd da 61 be
       0.104803264 0.052976415 0.09091155 -0.22056146
0003b0 96 93 3d be 78 66 6c bd 36 41 d8 3d e0 83 4f bc
       -0.18513331 -0.05771491 0.10559313 -0.012665719
0003c0 98 cd e5 3d 50 f0 23 bd bb 9b a5 3d 54 1a b6 3d
       0.112208545 -0.0400241 0.08086344 0.088917404
0003d0 e6 b4 67 bd 40 3a d2 3c 90 88 98 be f4 50 23 3d
       -0.056569003 0.025662541 -0.2979169 0.039872125
0003e0 15 73 0d 3e 2a 37 81 3d f3 6e c7 3d 04 dc 92 3b
       0.13813432 0.0630935 0.09737959 0.0044817943
0003f0 07 a7 e9 bd 38 68 d6 bd dd 78 32 bd 6b 4d 80 3c
       -0.11408811 -0.10469097 -0.043572295 0.015661916

fc.weight f4 [5, 64]
000000 22 92 a8 bc 00 95 40 3b be bd 29 3e 48 15 d2 3c
       -0.020577494 0.0029385686 0.16576287 0.025644913
000010 d5 01 a4 3d 2f b6 35 bd 39 5d ed 3c ed 57 d5 3c
       0.08008162 -0.044363197 0.028975116 0.026042903
000020 1e 07 99 3d dc 1c 8f bc 9e 41 d8 bc 31 a1 18 3d
       0.074720606 -0.017469816 -0.026398476 0.0372631
000030 be 5a 53 3c 8b 02 01 3d 3e cd de 3d 9c 60 f7 3d
       0.012900053 0.031496566 0.108789906 0.12078974
000040 f7 8d 31 3c 3a 81 8b 3d 89 07 d3 3c c7 82 70 bd
       0.01083707 0.068117574 0.025760429 -0.05871847
000050 c3 7b 45 bd f8 cb 1e 3d ce d7 86 3d f0 9d eb bc
       -0.04821373 0.03876874 0.0658413 -0.028761834
000060 ed 52 24 bd d8 a5 ea bd 3c a0 88 3d 13 4f 4b bc
       -0.040118147 -0.114574134 0.06671187 -0.0124089895
000070 25 db 30 3e 3a 58 01 be 40 dd 12 3e 0b 4b 0a 3d
       0.17271097 -0.12631312 0.14342213 0.033762973
000080 28 68 5e 3d c6 b5 a0 3d f5 c0 ca 3d 90 47 14 bc
       0.05429855 0.078471705 0.09900085 -0.009050265
000090 02 9a 8c bd a4 41 99 bd e2 9f a3 bc c0 49 ac 3d
       -0.06865312 -0.07483223 -0.019973699 0.08412504
0000a0 40 99 77 bd c4 d3 18 bd e4 e0 d0 bd 78 6e a0 bc
       -0.060448885 -0.03731133 -0.101991445 -0.019583926
0000b0 2f 1e 5d bd b4 4d df bd a4 85 e2 3d 68 f9 de 3c
       -0.053983863 -0.109034926 0.11060646 0.027218536
0000c0 fd 89 b8 3e 86 13 35 3c e5 ab 2c 3c d7 6b 49 3b
       0.36042777 0.011052018 0.01053903 0.0030734444
0000d0 f1 75 73 39 ad b3 1b bc e2 39 22 be 74 18 17 bd
       0.00023218222 -0.009503287 -0.15842393 -0.036888555
0000e0 18 2a cc 3d 28 3c c5 bf e7 8c a7 be 6c 73 70 3c
       0.09968966 -1.5408983 -0.32724687 0.014675956
0000f0 e2 11 db 3c 66 e0 c5 bd 8f 84 45 be 6b 45 ca 3d
       0.026741926 -0.09661941 -0.19288848 0.09876522
000100 47 9e 98 ba 1c 85 e1 3d 57 e8 6e 3c 6a 78 e2 3d
       -0.001164385 0.11011717 0.014581761 0.110581234
000110 14 ce 96 bd 81 3c ea bc ed 15 28 bd e4 50 5b bd
       -0.07363525 -0.028593304 -0.041036535 -0.05354394
000120 84 81 62 bd 6c 8f c4 bd bc 8b af 3b 71 b3 27 be
       -0.055299297 -0.09597668 0.005357234 -0.16377045
000130 fe 8c 3c bc 43 e2 e7 3d dc 54 b8 3d 90 73 ef 3c
       -0.0115082245 0.11322453 0.09000561 0.02922991
000140 c9 9a 35 bd 00 07 d1 ba a5 98 05 bc ad 72 cc bd
       -0.044337068 -0.0015947521 -0.008154069 -0.0998281
000150 f3 3c 82 3b d0 71 d9 3d d7 23 bb 3d ce ac 42 be
       0.003974551 0.10617411 0.09137695 -0.19011232
000160 4e 6e 91 bd c3 0a cc bd 4a 0f 99 3d f7 be 03 3e
       -0.07101117 -0.0996299 0.07473619 0.12865816
000170 de 33 bb 3e b2 c7 ba 3c 83 a1 df 3d 8c a7 c3 3d
       0.3656301 0.0228003 0.10919478 0.095534414
000180 dc 59 7e 3d 7b 01 a8 3d 88 0b b7 bc 06 01 ba 3d
       0.062097415 0.082034074 -0.022344366 0.090822265
000190 d3 58 25 3e a0 9e 9c bd 8d f1 95 3d 36 62 c9 bd
       0.16147165 -0.07647443 0.07321463 -0.098331854
0001a0 49 d1 50 3d 02 95 bd 3d f4 7a 33 bd c5 97 15 be
       0.05098084 0.092569366 -0.04381843 -0.14608677
0001b0 9b d0 5a bd d5 b9 44 bd 98 3f 60 bd 60 f3 e8 bc
       -0.053421598 -0.048028786 -0.054748148 -0.028436363
0001c0 2d e6 47 bf 3f 14 df 3d 9a b1 11 be 4c f0 2e 3d
       -0.78085595 0.108925335 -0.14227906 0.042709634
0001d0 33 01 5c bd 97 14 d7 bd 18 1b a9 be 53 67 b8 3c
       -0.05371208 -0.10501974 -0.33028483 0.022510206
0001e0 11 9a fb bd c1 2a b7 bf 54 7c a0 be 62 21 e1 bc
       -0.12285245 -1.4309922 -0.31344855 -0.027481738
0001f0 b6 3d 8e bd f4 0c 16 bd 07 95 3f bf d4 d2 07 3e
       -0.06945364 -0.036633447 -0.7483677 0.13264018
000200 d3 11 51 3b 4e 65 cf bd 71 c5 04 3e 54 6b 65 3d
       0.0031901493 -0.10126744 0.12965943 0.05601056
000210 1b 7f e3 bc 66 4a 0f be 7e 41 23 3d 45 e8 18 bc
       -0.02777057 -0.13993225 0.03985738 -0.009332721
000220 94 0c 57 bd 36 25 c6 bd fc f1 c0 bd ef 08 8b bd
       -0.05250223 -0.09675066 -0.09421155 -0.06788813
000230 4d 53 3a 3d 76 59 c3 3d a0 bd bb bc e4 76 11 3d
       0.045489598 0.09538548 -0.022917569 0.035513774
000240 60 a8 c1 3c cc b7 10 3d 16 cf fe 3c 0e e4 6f 3c
       0.023639858 0.035331532 0.031104606 0.014641775
000250 75 84 88 3a 80 6d 49 3c a3 98 8b bd 5e 71 00 be
       0.0010415452 0.012294173 -0.068162225 -0.12543246
000260 81 26 4d bd 8c 40 43 bd 97 4e 83 3d 8b 83 68 bc
       -0.05008555 -0.04766898 0.06411474 -0.014191519
000270 81 20 12 3f 83 f4 74 3c 67 48 90 bd 2d 07 43 3c
       0.5708085 0.014950874 -0.0704506 0.011903566
000280 4e d4 b7 bd 39 ac f9 3d c7 89 9b 3b 78 f5 00 3d
       -0.08976041 0.12191052 0.004746649 0.031484097
000290 3c 25 84 bc 09 06 27 3d 46 fb 8a 3c 38 5a 62 bd
       -0.016131036 0.04077724 0.01696552 -0.05526182
0002a0 31 7b 6d 3d 44 22 68 3d 4c 2b 86 bd 2e eb 6b bd
       0.057978813 0.056673303 -0.06551227 -0.05759733
0002b0 d2 4a c1 bd 21 0d f3 bc e2 cb d0 3d 80 25 52 3c
       -0.09438099 -0.029669346 0.101951376 0.0128263235
0002c0 cf a5 46 bf f4 43 ed 3d 3b bf 56 b9 15 39 44 3c
       -0.77596754 0.11585227 -0.00020479869 0.0119765
0002d0 c4 5e ac 3d 0e f9 24 be 0c b6 04 be 54 77 00 bd
       0.084165126 -0.16110632 -0.1296007 -0.0313638
0002e0 fa 20 ca bd 37 a4 b9 bf 47 d5 a2 be 73 6d a7 bc
       -0.09869571 -1.4503239 -0.31803343 -0.020437932
0002f0 59 3e 8d bd 88 a2 5a bd 53 aa f0 be 8a 46 66 3c
       -0.068966575 -0.053377658 -0.47004947 0.014054904
000300 08 58 8d bc f6 a5 e1 bd 24 ff 19 bd 80 11 ba bd
       -0.01725389 -0.11017983 -0.037596837 -0.09085369
000310 d3 5c 47 3d ed 24 37 bd 0b a7 40 bd e6 6c 1d 3d
       0.04867251 -0.04471295 -0.047034305 0.03843393
000320 40 6d 47 bc e6 f1 d7 bd 41 ac 13 bd 36 03 84 3d
       -0.012172043 -0.10544185 -0.036052946 0.06445925
000330 a0 87 16 3e 1a de b7 3d ac 63 0e 3d 46 b7 e5 bd
       0.14700174 0.089779094 0.034763023 -0.11216597
000340 b8 0d cc 3d 00 e1 fe 3a fb ec 8f bd ad 4a 08 3e
       0.09963554 0.0019445717 -0.07027622 0.13309737
000350 31 29 9a 3d d0 81 d7 3c 7f 04 12 bd 14 9f 8c 3d
       0.07527388 0.026307017 -0.03564882 0.06866279
000360 d8 96 5c bd 15 fb 17 bd 1a 9f 4c 3e 78 c8 cb bd
       -0.053854793 -0.037104685 0.19982567 -0.09950346
000370 56 79 bf 3e 1d b4 81 bd ad dd 21 bf 6b 38 2c 3c
       0.3739726 -0.06333182 -0.63228875 0.010511498
000380 80 12 83 bb 08 22 b8 ba 14 6f 79 3d f2 46 91 bd
       -0.004000008 -0.0014048228 0.060896948 -0.0709361
000390 07 22 a2 3d 71 83 cf bd 2b e3 7a 3b 26 de b2 bd
       0.079166465 -0.10132492 0.0038282375 -0.08733778
0003a0 5b 2e 25 bd 40 0c b2 bb 88 42 f1 3d e9 28 f2 3b
       -0.04032741 -0.005433589 0.11780268 0.007390131
0003b0 df c2 43 bd 92 b2 23 bd 38 03 78 3d 6c 49 fa bd
       -0.047793265 -0.03996522 0.060549945 -0.12221035
0003c0 7e 39 96 be f1 f3 c7 bc 97 fc 94 bd b0 2e a3 bc
       -0.29340738 -0.024408313 -0.0727474 -0.019919723
0003d0 0f 71 84 3d 53 4c 1b bd ec 8b 7d be 54 97 96 bd
       0.06466877 -0.037914585 -0.24760407 -0.07353082
0003e0 64 f5 06 bd fc d8 b3 3f 79 94 b1 be 8f 32 e8 bc
       -0.032948866 1.4050593 -0.34683588 -0.02834442
0003f0 ba 6f 0a bd 48 4a 56 3d 88 44 02 3f cd 39 fd 3d
       -0.033797957 0.052316934 0.5088582 0.1236454

fc.bias f4 [5]
000000 9d f9 49 3b 2f fb c1 bd fd 09 1e bb e7 96 b4 3c
       0.0030818947 -0.094717376 -0.002411484 0.022044612
000010 08 e1 11 3d
       0.035614997
